…
[ INFO : 2024-09-16 23:57:15,414 ] - <== Data statistics ==>
[ INFO : 2024-09-16 23:57:15,414 ] - train data num: 106747, spk num: 576
[ INFO : 2024-09-16 23:57:15,465 ] - <== Dataloaders ==>
[ INFO : 2024-09-16 23:57:15,465 ] - train dataloaders created
[ INFO : 2024-09-16 23:57:15,465 ] - epoch iteration number: 833
[ INFO : 2024-09-16 23:57:15,465 ] - <== Model ==>
[ INFO : 2024-09-16 23:57:15,573 ] - speaker_model size: 7176224
[ INFO : 2024-09-16 23:57:15,573 ] - Train model from scratch ...
[ INFO : 2024-09-16 23:57:15,580 ] - CAMPPlus(
[ INFO : 2024-09-16 23:57:15,580 ] -   (head): FCM(
[ INFO : 2024-09-16 23:57:15,580 ] -     (conv1): Conv2d(1, 32, kernel_size=(3, 3), stride=(1, 1), padding=(1, 1), bias=False)
[ INFO : 2024-09-16 23:57:15,580 ] -     (bn1): BatchNorm2d(32, eps=1e-05, momentum=0.1, affine=True, track_running_stats=True)
[ INFO : 2024-09-16 23:57:15,580 ] -     (layer1): Sequential(
[ INFO : 2024-09-16 23:57:15,580 ] -       (0): BasicResBlock(
[ INFO : 2024-09-16 23:57:15,580 ] -         (conv1): Conv2d(32, 32, kernel_size=(3, 3), stride=(2, 1), padding=(1, 1), bias=False)
[ INFO : 2024-09-16 23:57:15,580 ] -         (bn1): BatchNorm2d(32, eps=1e-05, momentum=0.1, affine=True, track_running_stats=True)
[ INFO : 2024-09-16 23:57:15,580 ] -         (conv2): Conv2d(32, 32, kernel_size=(3, 3), stride=(1, 1), padding=(1, 1), bias=False)
[ INFO : 2024-09-16 23:57:15,580 ] -         (bn2): BatchNorm2d(32, eps=1e-05, momentum=0.1, affine=True, track_running_stats=True)
[ INFO : 2024-09-16 23:57:15,580 ] -         (shortcut): Sequential(
[ INFO : 2024-09-16 23:57:15,580 ] -           (0): Conv2d(32, 32, kernel_size=(1, 1), stride=(2, 1), bias=False)
[ INFO : 2024-09-16 23:57:15,580 ] -           (1): BatchNorm2d(32, eps=1e-05, momentum=0.1, affine=True, track_running_stats=True)
[ INFO : 2024-09-16 23:57:15,580 ] -         )
[ INFO : 2024-09-16 23:57:15,580 ] -       )
[ INFO : 2024-09-16 23:57:15,580 ] -       (1): BasicResBlock(
[ INFO : 2024-09-16 23:57:15,580 ] -         (conv1): Conv2d(32, 32, kernel_size=(3, 3), stride=(1, 1), padding=(1, 1), bias=False)
[ INFO : 2024-09-16 23:57:15,580 ] -         (bn1): BatchNorm2d(32, eps=1e-05, momentum=0.1, affine=True, track_running_stats=True)
[ INFO : 2024-09-16 23:57:15,580 ] -         (conv2): Conv2d(32, 32, kernel_size=(3, 3), stride=(1, 1), padding=(1, 1), bias=False)
[ INFO : 2024-09-16 23:57:15,580 ] -         (bn2): BatchNorm2d(32, eps=1e-05, momentum=0.1, affine=True, track_running_stats=True)
[ INFO : 2024-09-16 23:57:15,580 ] -         (shortcut): Sequential()
[ INFO : 2024-09-16 23:57:15,580 ] -       )
[ INFO : 2024-09-16 23:57:15,580 ] -     )
[ INFO : 2024-09-16 23:57:15,580 ] -     (layer2): Sequential(
[ INFO : 2024-09-16 23:57:15,580 ] -       (0): BasicResBlock(
[ INFO : 2024-09-16 23:57:15,580 ] -         (conv1): Conv2d(32, 32, kernel_size=(3, 3), stride=(2, 1), padding=(1, 1), bias=False)
[ INFO : 2024-09-16 23:57:15,580 ] -         (bn1): BatchNorm2d(32, eps=1e-05, momentum=0.1, affine=True, track_running_stats=True)
[ INFO : 2024-09-16 23:57:15,580 ] -         (conv2): Conv2d(32, 32, kernel_size=(3, 3), stride=(1, 1), padding=(1, 1), bias=False)
[ INFO : 2024-09-16 23:57:15,580 ] -         (bn2): BatchNorm2d(32, eps=1e-05, momentum=0.1, affine=True, track_running_stats=True)
[ INFO : 2024-09-16 23:57:15,580 ] -         (shortcut): Sequential(
[ INFO : 2024-09-16 23:57:15,580 ] -           (0): Conv2d(32, 32, kernel_size=(1, 1), stride=(2, 1), bias=False)
[ INFO : 2024-09-16 23:57:15,580 ] -           (1): BatchNorm2d(32, eps=1e-05, momentum=0.1, affine=True, track_running_stats=True)
[ INFO : 2024-09-16 23:57:15,580 ] -         )
[ INFO : 2024-09-16 23:57:15,580 ] -       )
[ INFO : 2024-09-16 23:57:15,580 ] -       (1): BasicResBlock(
[ INFO : 2024-09-16 23:57:15,580 ] -         (conv1): Conv2d(32, 32, kernel_size=(3, 3), stride=(1, 1), padding=(1, 1), bias=False)
[ INFO : 2024-09-16 23:57:15,580 ] -         (bn1): BatchNorm2d(32, eps=1e-05, momentum=0.1, affine=True, track_running_stats=True)
[ INFO : 2024-09-16 23:57:15,580 ] -         (conv2): Conv2d(32, 32, kernel_size=(3, 3), stride=(1, 1), padding=(1, 1), bias=False)
[ INFO : 2024-09-16 23:57:15,580 ] -         (bn2): BatchNorm2d(32, eps=1e-05, momentum=0.1, affine=True, track_running_stats=True)
[ INFO : 2024-09-16 23:57:15,580 ] -         (shortcut): Sequential()
[ INFO : 2024-09-16 23:57:15,580 ] -       )
[ INFO : 2024-09-16 23:57:15,580 ] -     )
[ INFO : 2024-09-16 23:57:15,580 ] -     (conv2): Conv2d(32, 32, kernel_size=(3, 3), stride=(2, 1), padding=(1, 1), bias=False)
[ INFO : 2024-09-16 23:57:15,580 ] -     (bn2): BatchNorm2d(32, eps=1e-05, momentum=0.1, affine=True, track_running_stats=True)
[ INFO : 2024-09-16 23:57:15,580 ] -   )
[ INFO : 2024-09-16 23:57:15,580 ] -   (xvector): Sequential(
[ INFO : 2024-09-16 23:57:15,580 ] -     (tdnn): TDNNLayer(
[ INFO : 2024-09-16 23:57:15,580 ] -       (linear): Conv1d(320, 128, kernel_size=(5,), stride=(2,), padding=(2,), bias=False)
[ INFO : 2024-09-16 23:57:15,580 ] -       (nonlinear): Sequential(
[ INFO : 2024-09-16 23:57:15,580 ] -         (batchnorm): BatchNorm1d(128, eps=1e-05, momentum=0.1, affine=True, track_running_stats=True)
[ INFO : 2024-09-16 23:57:15,580 ] -         (relu): ReLU(inplace=True)
[ INFO : 2024-09-16 23:57:15,580 ] -       )
[ INFO : 2024-09-16 23:57:15,580 ] -     )
[ INFO : 2024-09-16 23:57:15,581 ] -     (block1): CAMDenseTDNNBlock(
[ INFO : 2024-09-16 23:57:15,581 ] -       (tdnnd1): CAMDenseTDNNLayer(
[ INFO : 2024-09-16 23:57:15,581 ] -         (nonlinear1): Sequential(
[ INFO : 2024-09-16 23:57:15,581 ] -           (batchnorm): BatchNorm1d(128, eps=1e-05, momentum=0.1, affine=True, track_running_stats=True)
[ INFO : 2024-09-16 23:57:15,581 ] -           (relu): ReLU(inplace=True)
[ INFO : 2024-09-16 23:57:15,581 ] -         )
[ INFO : 2024-09-16 23:57:15,581 ] -         (linear1): Conv1d(128, 128, kernel_size=(1,), stride=(1,), bias=False)
[ INFO : 2024-09-16 23:57:15,581 ] -         (nonlinear2): Sequential(
[ INFO : 2024-09-16 23:57:15,581 ] -           (batchnorm): BatchNorm1d(128, eps=1e-05, momentum=0.1, affine=True, track_running_stats=True)
[ INFO : 2024-09-16 23:57:15,581 ] -           (relu): ReLU(inplace=True)
[ INFO : 2024-09-16 23:57:15,581 ] -         )
[ INFO : 2024-09-16 23:57:15,581 ] -         (cam_layer): CAMLayer(
[ INFO : 2024-09-16 23:57:15,581 ] -           (linear_local): Conv1d(128, 32, kernel_size=(3,), stride=(1,), padding=(1,), bias=False)
[ INFO : 2024-09-16 23:57:15,581 ] -           (linear1): Conv1d(128, 64, kernel_size=(1,), stride=(1,))
[ INFO : 2024-09-16 23:57:15,581 ] -           (relu): ReLU(inplace=True)
[ INFO : 2024-09-16 23:57:15,581 ] -           (linear2): Conv1d(64, 32, kernel_size=(1,), stride=(1,))
[ INFO : 2024-09-16 23:57:15,581 ] -           (sigmoid): Sigmoid()
[ INFO : 2024-09-16 23:57:15,581 ] -         )
[ INFO : 2024-09-16 23:57:15,581 ] -       )
[ INFO : 2024-09-16 23:57:15,581 ] -       (tdnnd2): CAMDenseTDNNLayer(
[ INFO : 2024-09-16 23:57:15,581 ] -         (nonlinear1): Sequential(
[ INFO : 2024-09-16 23:57:15,581 ] -           (batchnorm): BatchNorm1d(160, eps=1e-05, momentum=0.1, affine=True, track_running_stats=True)
[ INFO : 2024-09-16 23:57:15,581 ] -           (relu): ReLU(inplace=True)
[ INFO : 2024-09-16 23:57:15,581 ] -         )
[ INFO : 2024-09-16 23:57:15,581 ] -         (linear1): Conv1d(160, 128, kernel_size=(1,), stride=(1,), bias=False)
[ INFO : 2024-09-16 23:57:15,581 ] -         (nonlinear2): Sequential(
[ INFO : 2024-09-16 23:57:15,581 ] -           (batchnorm): BatchNorm1d(128, eps=1e-05, momentum=0.1, affine=True, track_running_stats=True)
[ INFO : 2024-09-16 23:57:15,581 ] -           (relu): ReLU(inplace=True)
[ INFO : 2024-09-16 23:57:15,581 ] -         )
[ INFO : 2024-09-16 23:57:15,581 ] -         (cam_layer): CAMLayer(
[ INFO : 2024-09-16 23:57:15,581 ] -           (linear_local): Conv1d(128, 32, kernel_size=(3,), stride=(1,), padding=(1,), bias=False)
[ INFO : 2024-09-16 23:57:15,581 ] -           (linear1): Conv1d(128, 64, kernel_size=(1,), stride=(1,))
[ INFO : 2024-09-16 23:57:15,581 ] -           (relu): ReLU(inplace=True)
[ INFO : 2024-09-16 23:57:15,581 ] -           (linear2): Conv1d(64, 32, kernel_size=(1,), stride=(1,))
[ INFO : 2024-09-16 23:57:15,581 ] -           (sigmoid): Sigmoid()
[ INFO : 2024-09-16 23:57:15,581 ] -         )
[ INFO : 2024-09-16 23:57:15,581 ] -       )
[ INFO : 2024-09-16 23:57:15,581 ] -       (tdnnd3): CAMDenseTDNNLayer(
[ INFO : 2024-09-16 23:57:15,581 ] -         (nonlinear1): Sequential(
[ INFO : 2024-09-16 23:57:15,581 ] -           (batchnorm): BatchNorm1d(192, eps=1e-05, momentum=0.1, affine=True, track_running_stats=True)
[ INFO : 2024-09-16 23:57:15,581 ] -           (relu): ReLU(inplace=True)
[ INFO : 2024-09-16 23:57:15,581 ] -         )
[ INFO : 2024-09-16 23:57:15,581 ] -         (linear1): Conv1d(192, 128, kernel_size=(1,), stride=(1,), bias=False)
[ INFO : 2024-09-16 23:57:15,581 ] -         (nonlinear2): Sequential(
[ INFO : 2024-09-16 23:57:15,581 ] -           (batchnorm): BatchNorm1d(128, eps=1e-05, momentum=0.1, affine=True, track_running_stats=True)
[ INFO : 2024-09-16 23:57:15,581 ] -           (relu): ReLU(inplace=True)
[ INFO : 2024-09-16 23:57:15,581 ] -         )
[ INFO : 2024-09-16 23:57:15,581 ] -         (cam_layer): CAMLayer(
[ INFO : 2024-09-16 23:57:15,581 ] -           (linear_local): Conv1d(128, 32, kernel_size=(3,), stride=(1,), padding=(1,), bias=False)
[ INFO : 2024-09-16 23:57:15,581 ] -           (linear1): Conv1d(128, 64, kernel_size=(1,), stride=(1,))
[ INFO : 2024-09-16 23:57:15,581 ] -           (relu): ReLU(inplace=True)
[ INFO : 2024-09-16 23:57:15,581 ] -           (linear2): Conv1d(64, 32, kernel_size=(1,), stride=(1,))
[ INFO : 2024-09-16 23:57:15,581 ] -           (sigmoid): Sigmoid()
[ INFO : 2024-09-16 23:57:15,581 ] -         )
[ INFO : 2024-09-16 23:57:15,581 ] -       )
[ INFO : 2024-09-16 23:57:15,581 ] -       (tdnnd4): CAMDenseTDNNLayer(
[ INFO : 2024-09-16 23:57:15,581 ] -         (nonlinear1): Sequential(
[ INFO : 2024-09-16 23:57:15,581 ] -           (batchnorm): BatchNorm1d(224, eps=1e-05, momentum=0.1, affine=True, track_running_stats=True)
[ INFO : 2024-09-16 23:57:15,581 ] -           (relu): ReLU(inplace=True)
[ INFO : 2024-09-16 23:57:15,581 ] -         )
[ INFO : 2024-09-16 23:57:15,581 ] -         (linear1): Conv1d(224, 128, kernel_size=(1,), stride=(1,), bias=False)
[ INFO : 2024-09-16 23:57:15,581 ] -         (nonlinear2): Sequential(
[ INFO : 2024-09-16 23:57:15,582 ] -           (batchnorm): BatchNorm1d(128, eps=1e-05, momentum=0.1, affine=True, track_running_stats=True)
[ INFO : 2024-09-16 23:57:15,582 ] -           (relu): ReLU(inplace=True)
[ INFO : 2024-09-16 23:57:15,582 ] -         )
[ INFO : 2024-09-16 23:57:15,582 ] -         (cam_layer): CAMLayer(
[ INFO : 2024-09-16 23:57:15,582 ] -           (linear_local): Conv1d(128, 32, kernel_size=(3,), stride=(1,), padding=(1,), bias=False)
[ INFO : 2024-09-16 23:57:15,582 ] -           (linear1): Conv1d(128, 64, kernel_size=(1,), stride=(1,))
[ INFO : 2024-09-16 23:57:15,582 ] -           (relu): ReLU(inplace=True)
[ INFO : 2024-09-16 23:57:15,582 ] -           (linear2): Conv1d(64, 32, kernel_size=(1,), stride=(1,))
[ INFO : 2024-09-16 23:57:15,582 ] -           (sigmoid): Sigmoid()
[ INFO : 2024-09-16 23:57:15,582 ] -         )
[ INFO : 2024-09-16 23:57:15,582 ] -       )
[ INFO : 2024-09-16 23:57:15,582 ] -       (tdnnd5): CAMDenseTDNNLayer(
[ INFO : 2024-09-16 23:57:15,582 ] -         (nonlinear1): Sequential(
[ INFO : 2024-09-16 23:57:15,582 ] -           (batchnorm): BatchNorm1d(256, eps=1e-05, momentum=0.1, affine=True, track_running_stats=True)
[ INFO : 2024-09-16 23:57:15,582 ] -           (relu): ReLU(inplace=True)
[ INFO : 2024-09-16 23:57:15,582 ] -         )
[ INFO : 2024-09-16 23:57:15,582 ] -         (linear1): Conv1d(256, 128, kernel_size=(1,), stride=(1,), bias=False)
[ INFO : 2024-09-16 23:57:15,582 ] -         (nonlinear2): Sequential(
[ INFO : 2024-09-16 23:57:15,582 ] -           (batchnorm): BatchNorm1d(128, eps=1e-05, momentum=0.1, affine=True, track_running_stats=True)
[ INFO : 2024-09-16 23:57:15,582 ] -           (relu): ReLU(inplace=True)
[ INFO : 2024-09-16 23:57:15,582 ] -         )
[ INFO : 2024-09-16 23:57:15,582 ] -         (cam_layer): CAMLayer(
[ INFO : 2024-09-16 23:57:15,582 ] -           (linear_local): Conv1d(128, 32, kernel_size=(3,), stride=(1,), padding=(1,), bias=False)
[ INFO : 2024-09-16 23:57:15,582 ] -           (linear1): Conv1d(128, 64, kernel_size=(1,), stride=(1,))
[ INFO : 2024-09-16 23:57:15,582 ] -           (relu): ReLU(inplace=True)
[ INFO : 2024-09-16 23:57:15,582 ] -           (linear2): Conv1d(64, 32, kernel_size=(1,), stride=(1,))
[ INFO : 2024-09-16 23:57:15,582 ] -           (sigmoid): Sigmoid()
[ INFO : 2024-09-16 23:57:15,582 ] -         )
[ INFO : 2024-09-16 23:57:15,582 ] -       )
[ INFO : 2024-09-16 23:57:15,582 ] -       (tdnnd6): CAMDenseTDNNLayer(
[ INFO : 2024-09-16 23:57:15,582 ] -         (nonlinear1): Sequential(
[ INFO : 2024-09-16 23:57:15,582 ] -           (batchnorm): BatchNorm1d(288, eps=1e-05, momentum=0.1, affine=True, track_running_stats=True)
[ INFO : 2024-09-16 23:57:15,582 ] -           (relu): ReLU(inplace=True)
[ INFO : 2024-09-16 23:57:15,582 ] -         )
[ INFO : 2024-09-16 23:57:15,582 ] -         (linear1): Conv1d(288, 128, kernel_size=(1,), stride=(1,), bias=False)
[ INFO : 2024-09-16 23:57:15,582 ] -         (nonlinear2): Sequential(
[ INFO : 2024-09-16 23:57:15,582 ] -           (batchnorm): BatchNorm1d(128, eps=1e-05, momentum=0.1, affine=True, track_running_stats=True)
[ INFO : 2024-09-16 23:57:15,582 ] -           (relu): ReLU(inplace=True)
[ INFO : 2024-09-16 23:57:15,582 ] -         )
[ INFO : 2024-09-16 23:57:15,582 ] -         (cam_layer): CAMLayer(
[ INFO : 2024-09-16 23:57:15,582 ] -           (linear_local): Conv1d(128, 32, kernel_size=(3,), stride=(1,), padding=(1,), bias=False)
[ INFO : 2024-09-16 23:57:15,582 ] -           (linear1): Conv1d(128, 64, kernel_size=(1,), stride=(1,))
[ INFO : 2024-09-16 23:57:15,582 ] -           (relu): ReLU(inplace=True)
[ INFO : 2024-09-16 23:57:15,582 ] -           (linear2): Conv1d(64, 32, kernel_size=(1,), stride=(1,))
[ INFO : 2024-09-16 23:57:15,582 ] -           (sigmoid): Sigmoid()
[ INFO : 2024-09-16 23:57:15,582 ] -         )
[ INFO : 2024-09-16 23:57:15,582 ] -       )
[ INFO : 2024-09-16 23:57:15,582 ] -       (tdnnd7): CAMDenseTDNNLayer(
[ INFO : 2024-09-16 23:57:15,582 ] -         (nonlinear1): Sequential(
[ INFO : 2024-09-16 23:57:15,582 ] -           (batchnorm): BatchNorm1d(320, eps=1e-05, momentum=0.1, affine=True, track_running_stats=True)
[ INFO : 2024-09-16 23:57:15,582 ] -           (relu): ReLU(inplace=True)
[ INFO : 2024-09-16 23:57:15,582 ] -         )
[ INFO : 2024-09-16 23:57:15,582 ] -         (linear1): Conv1d(320, 128, kernel_size=(1,), stride=(1,), bias=False)
[ INFO : 2024-09-16 23:57:15,582 ] -         (nonlinear2): Sequential(
[ INFO : 2024-09-16 23:57:15,582 ] -           (batchnorm): BatchNorm1d(128, eps=1e-05, momentum=0.1, affine=True, track_running_stats=True)
[ INFO : 2024-09-16 23:57:15,582 ] -           (relu): ReLU(inplace=True)
[ INFO : 2024-09-16 23:57:15,582 ] -         )
[ INFO : 2024-09-16 23:57:15,582 ] -         (cam_layer): CAMLayer(
[ INFO : 2024-09-16 23:57:15,582 ] -           (linear_local): Conv1d(128, 32, kernel_size=(3,), stride=(1,), padding=(1,), bias=False)
[ INFO : 2024-09-16 23:57:15,582 ] -           (linear1): Conv1d(128, 64, kernel_size=(1,), stride=(1,))
[ INFO : 2024-09-16 23:57:15,582 ] -           (relu): ReLU(inplace=True)
[ INFO : 2024-09-16 23:57:15,583 ] -           (linear2): Conv1d(64, 32, kernel_size=(1,), stride=(1,))
[ INFO : 2024-09-16 23:57:15,583 ] -           (sigmoid): Sigmoid()
[ INFO : 2024-09-16 23:57:15,583 ] -         )
[ INFO : 2024-09-16 23:57:15,583 ] -       )
[ INFO : 2024-09-16 23:57:15,583 ] -       (tdnnd8): CAMDenseTDNNLayer(
[ INFO : 2024-09-16 23:57:15,583 ] -         (nonlinear1): Sequential(
[ INFO : 2024-09-16 23:57:15,583 ] -           (batchnorm): BatchNorm1d(352, eps=1e-05, momentum=0.1, affine=True, track_running_stats=True)
[ INFO : 2024-09-16 23:57:15,583 ] -           (relu): ReLU(inplace=True)
[ INFO : 2024-09-16 23:57:15,583 ] -         )
[ INFO : 2024-09-16 23:57:15,583 ] -         (linear1): Conv1d(352, 128, kernel_size=(1,), stride=(1,), bias=False)
[ INFO : 2024-09-16 23:57:15,583 ] -         (nonlinear2): Sequential(
[ INFO : 2024-09-16 23:57:15,583 ] -           (batchnorm): BatchNorm1d(128, eps=1e-05, momentum=0.1, affine=True, track_running_stats=True)
[ INFO : 2024-09-16 23:57:15,583 ] -           (relu): ReLU(inplace=True)
[ INFO : 2024-09-16 23:57:15,583 ] -         )
[ INFO : 2024-09-16 23:57:15,583 ] -         (cam_layer): CAMLayer(
[ INFO : 2024-09-16 23:57:15,583 ] -           (linear_local): Conv1d(128, 32, kernel_size=(3,), stride=(1,), padding=(1,), bias=False)
[ INFO : 2024-09-16 23:57:15,583 ] -           (linear1): Conv1d(128, 64, kernel_size=(1,), stride=(1,))
[ INFO : 2024-09-16 23:57:15,583 ] -           (relu): ReLU(inplace=True)
[ INFO : 2024-09-16 23:57:15,583 ] -           (linear2): Conv1d(64, 32, kernel_size=(1,), stride=(1,))
[ INFO : 2024-09-16 23:57:15,583 ] -           (sigmoid): Sigmoid()
[ INFO : 2024-09-16 23:57:15,583 ] -         )
[ INFO : 2024-09-16 23:57:15,583 ] -       )
[ INFO : 2024-09-16 23:57:15,583 ] -       (tdnnd9): CAMDenseTDNNLayer(
[ INFO : 2024-09-16 23:57:15,583 ] -         (nonlinear1): Sequential(
[ INFO : 2024-09-16 23:57:15,583 ] -           (batchnorm): BatchNorm1d(384, eps=1e-05, momentum=0.1, affine=True, track_running_stats=True)
[ INFO : 2024-09-16 23:57:15,583 ] -           (relu): ReLU(inplace=True)
[ INFO : 2024-09-16 23:57:15,583 ] -         )
[ INFO : 2024-09-16 23:57:15,583 ] -         (linear1): Conv1d(384, 128, kernel_size=(1,), stride=(1,), bias=False)
[ INFO : 2024-09-16 23:57:15,583 ] -         (nonlinear2): Sequential(
[ INFO : 2024-09-16 23:57:15,583 ] -           (batchnorm): BatchNorm1d(128, eps=1e-05, momentum=0.1, affine=True, track_running_stats=True)
[ INFO : 2024-09-16 23:57:15,583 ] -           (relu): ReLU(inplace=True)
[ INFO : 2024-09-16 23:57:15,583 ] -         )
[ INFO : 2024-09-16 23:57:15,583 ] -         (cam_layer): CAMLayer(
[ INFO : 2024-09-16 23:57:15,583 ] -           (linear_local): Conv1d(128, 32, kernel_size=(3,), stride=(1,), padding=(1,), bias=False)
[ INFO : 2024-09-16 23:57:15,583 ] -           (linear1): Conv1d(128, 64, kernel_size=(1,), stride=(1,))
[ INFO : 2024-09-16 23:57:15,583 ] -           (relu): ReLU(inplace=True)
[ INFO : 2024-09-16 23:57:15,583 ] -           (linear2): Conv1d(64, 32, kernel_size=(1,), stride=(1,))
[ INFO : 2024-09-16 23:57:15,583 ] -           (sigmoid): Sigmoid()
[ INFO : 2024-09-16 23:57:15,583 ] -         )
[ INFO : 2024-09-16 23:57:15,583 ] -       )
[ INFO : 2024-09-16 23:57:15,583 ] -       (tdnnd10): CAMDenseTDNNLayer(
[ INFO : 2024-09-16 23:57:15,583 ] -         (nonlinear1): Sequential(
[ INFO : 2024-09-16 23:57:15,583 ] -           (batchnorm): BatchNorm1d(416, eps=1e-05, momentum=0.1, affine=True, track_running_stats=True)
[ INFO : 2024-09-16 23:57:15,583 ] -           (relu): ReLU(inplace=True)
[ INFO : 2024-09-16 23:57:15,583 ] -         )
[ INFO : 2024-09-16 23:57:15,583 ] -         (linear1): Conv1d(416, 128, kernel_size=(1,), stride=(1,), bias=False)
[ INFO : 2024-09-16 23:57:15,583 ] -         (nonlinear2): Sequential(
[ INFO : 2024-09-16 23:57:15,583 ] -           (batchnorm): BatchNorm1d(128, eps=1e-05, momentum=0.1, affine=True, track_running_stats=True)
[ INFO : 2024-09-16 23:57:15,583 ] -           (relu): ReLU(inplace=True)
[ INFO : 2024-09-16 23:57:15,583 ] -         )
[ INFO : 2024-09-16 23:57:15,583 ] -         (cam_layer): CAMLayer(
[ INFO : 2024-09-16 23:57:15,583 ] -           (linear_local): Conv1d(128, 32, kernel_size=(3,), stride=(1,), padding=(1,), bias=False)
[ INFO : 2024-09-16 23:57:15,583 ] -           (linear1): Conv1d(128, 64, kernel_size=(1,), stride=(1,))
[ INFO : 2024-09-16 23:57:15,583 ] -           (relu): ReLU(inplace=True)
[ INFO : 2024-09-16 23:57:15,583 ] -           (linear2): Conv1d(64, 32, kernel_size=(1,), stride=(1,))
[ INFO : 2024-09-16 23:57:15,583 ] -           (sigmoid): Sigmoid()
[ INFO : 2024-09-16 23:57:15,583 ] -         )
[ INFO : 2024-09-16 23:57:15,583 ] -       )
[ INFO : 2024-09-16 23:57:15,583 ] -       (tdnnd11): CAMDenseTDNNLayer(
[ INFO : 2024-09-16 23:57:15,583 ] -         (nonlinear1): Sequential(
[ INFO : 2024-09-16 23:57:15,583 ] -           (batchnorm): BatchNorm1d(448, eps=1e-05, momentum=0.1, affine=True, track_running_stats=True)
[ INFO : 2024-09-16 23:57:15,584 ] -           (relu): ReLU(inplace=True)
[ INFO : 2024-09-16 23:57:15,584 ] -         )
[ INFO : 2024-09-16 23:57:15,584 ] -         (linear1): Conv1d(448, 128, kernel_size=(1,), stride=(1,), bias=False)
[ INFO : 2024-09-16 23:57:15,584 ] -         (nonlinear2): Sequential(
[ INFO : 2024-09-16 23:57:15,584 ] -           (batchnorm): BatchNorm1d(128, eps=1e-05, momentum=0.1, affine=True, track_running_stats=True)
[ INFO : 2024-09-16 23:57:15,584 ] -           (relu): ReLU(inplace=True)
[ INFO : 2024-09-16 23:57:15,584 ] -         )
[ INFO : 2024-09-16 23:57:15,584 ] -         (cam_layer): CAMLayer(
[ INFO : 2024-09-16 23:57:15,584 ] -           (linear_local): Conv1d(128, 32, kernel_size=(3,), stride=(1,), padding=(1,), bias=False)
[ INFO : 2024-09-16 23:57:15,584 ] -           (linear1): Conv1d(128, 64, kernel_size=(1,), stride=(1,))
[ INFO : 2024-09-16 23:57:15,584 ] -           (relu): ReLU(inplace=True)
[ INFO : 2024-09-16 23:57:15,584 ] -           (linear2): Conv1d(64, 32, kernel_size=(1,), stride=(1,))
[ INFO : 2024-09-16 23:57:15,584 ] -           (sigmoid): Sigmoid()
[ INFO : 2024-09-16 23:57:15,584 ] -         )
[ INFO : 2024-09-16 23:57:15,584 ] -       )
[ INFO : 2024-09-16 23:57:15,584 ] -       (tdnnd12): CAMDenseTDNNLayer(
[ INFO : 2024-09-16 23:57:15,584 ] -         (nonlinear1): Sequential(
[ INFO : 2024-09-16 23:57:15,584 ] -           (batchnorm): BatchNorm1d(480, eps=1e-05, momentum=0.1, affine=True, track_running_stats=True)
[ INFO : 2024-09-16 23:57:15,584 ] -           (relu): ReLU(inplace=True)
[ INFO : 2024-09-16 23:57:15,584 ] -         )
[ INFO : 2024-09-16 23:57:15,584 ] -         (linear1): Conv1d(480, 128, kernel_size=(1,), stride=(1,), bias=False)
[ INFO : 2024-09-16 23:57:15,584 ] -         (nonlinear2): Sequential(
[ INFO : 2024-09-16 23:57:15,584 ] -           (batchnorm): BatchNorm1d(128, eps=1e-05, momentum=0.1, affine=True, track_running_stats=True)
[ INFO : 2024-09-16 23:57:15,584 ] -           (relu): ReLU(inplace=True)
[ INFO : 2024-09-16 23:57:15,584 ] -         )
[ INFO : 2024-09-16 23:57:15,584 ] -         (cam_layer): CAMLayer(
[ INFO : 2024-09-16 23:57:15,584 ] -           (linear_local): Conv1d(128, 32, kernel_size=(3,), stride=(1,), padding=(1,), bias=False)
[ INFO : 2024-09-16 23:57:15,584 ] -           (linear1): Conv1d(128, 64, kernel_size=(1,), stride=(1,))
[ INFO : 2024-09-16 23:57:15,584 ] -           (relu): ReLU(inplace=True)
[ INFO : 2024-09-16 23:57:15,584 ] -           (linear2): Conv1d(64, 32, kernel_size=(1,), stride=(1,))
[ INFO : 2024-09-16 23:57:15,584 ] -           (sigmoid): Sigmoid()
[ INFO : 2024-09-16 23:57:15,584 ] -         )
[ INFO : 2024-09-16 23:57:15,584 ] -       )
[ INFO : 2024-09-16 23:57:15,584 ] -     )
[ INFO : 2024-09-16 23:57:15,584 ] -     (transit1): TransitLayer(
[ INFO : 2024-09-16 23:57:15,584 ] -       (nonlinear): Sequential(
[ INFO : 2024-09-16 23:57:15,584 ] -         (batchnorm): BatchNorm1d(512, eps=1e-05, momentum=0.1, affine=True, track_running_stats=True)
[ INFO : 2024-09-16 23:57:15,584 ] -         (relu): ReLU(inplace=True)
[ INFO : 2024-09-16 23:57:15,584 ] -       )
[ INFO : 2024-09-16 23:57:15,584 ] -       (linear): Conv1d(512, 256, kernel_size=(1,), stride=(1,), bias=False)
[ INFO : 2024-09-16 23:57:15,584 ] -     )
[ INFO : 2024-09-16 23:57:15,584 ] -     (block2): CAMDenseTDNNBlock(
[ INFO : 2024-09-16 23:57:15,584 ] -       (tdnnd1): CAMDenseTDNNLayer(
[ INFO : 2024-09-16 23:57:15,584 ] -         (nonlinear1): Sequential(
[ INFO : 2024-09-16 23:57:15,584 ] -           (batchnorm): BatchNorm1d(256, eps=1e-05, momentum=0.1, affine=True, track_running_stats=True)
[ INFO : 2024-09-16 23:57:15,584 ] -           (relu): ReLU(inplace=True)
[ INFO : 2024-09-16 23:57:15,584 ] -         )
[ INFO : 2024-09-16 23:57:15,584 ] -         (linear1): Conv1d(256, 128, kernel_size=(1,), stride=(1,), bias=False)
[ INFO : 2024-09-16 23:57:15,584 ] -         (nonlinear2): Sequential(
[ INFO : 2024-09-16 23:57:15,584 ] -           (batchnorm): BatchNorm1d(128, eps=1e-05, momentum=0.1, affine=True, track_running_stats=True)
[ INFO : 2024-09-16 23:57:15,584 ] -           (relu): ReLU(inplace=True)
[ INFO : 2024-09-16 23:57:15,584 ] -         )
[ INFO : 2024-09-16 23:57:15,584 ] -         (cam_layer): CAMLayer(
[ INFO : 2024-09-16 23:57:15,584 ] -           (linear_local): Conv1d(128, 32, kernel_size=(3,), stride=(1,), padding=(2,), dilation=(2,), bias=False)
[ INFO : 2024-09-16 23:57:15,584 ] -           (linear1): Conv1d(128, 64, kernel_size=(1,), stride=(1,))
[ INFO : 2024-09-16 23:57:15,584 ] -           (relu): ReLU(inplace=True)
[ INFO : 2024-09-16 23:57:15,584 ] -           (linear2): Conv1d(64, 32, kernel_size=(1,), stride=(1,))
[ INFO : 2024-09-16 23:57:15,584 ] -           (sigmoid): Sigmoid()
[ INFO : 2024-09-16 23:57:15,584 ] -         )
[ INFO : 2024-09-16 23:57:15,584 ] -       )
[ INFO : 2024-09-16 23:57:15,585 ] -       (tdnnd2): CAMDenseTDNNLayer(
[ INFO : 2024-09-16 23:57:15,585 ] -         (nonlinear1): Sequential(
[ INFO : 2024-09-16 23:57:15,585 ] -           (batchnorm): BatchNorm1d(288, eps=1e-05, momentum=0.1, affine=True, track_running_stats=True)
[ INFO : 2024-09-16 23:57:15,585 ] -           (relu): ReLU(inplace=True)
[ INFO : 2024-09-16 23:57:15,585 ] -         )
[ INFO : 2024-09-16 23:57:15,585 ] -         (linear1): Conv1d(288, 128, kernel_size=(1,), stride=(1,), bias=False)
[ INFO : 2024-09-16 23:57:15,585 ] -         (nonlinear2): Sequential(
[ INFO : 2024-09-16 23:57:15,585 ] -           (batchnorm): BatchNorm1d(128, eps=1e-05, momentum=0.1, affine=True, track_running_stats=True)
[ INFO : 2024-09-16 23:57:15,585 ] -           (relu): ReLU(inplace=True)
[ INFO : 2024-09-16 23:57:15,585 ] -         )
[ INFO : 2024-09-16 23:57:15,585 ] -         (cam_layer): CAMLayer(
[ INFO : 2024-09-16 23:57:15,585 ] -           (linear_local): Conv1d(128, 32, kernel_size=(3,), stride=(1,), padding=(2,), dilation=(2,), bias=False)
[ INFO : 2024-09-16 23:57:15,585 ] -           (linear1): Conv1d(128, 64, kernel_size=(1,), stride=(1,))
[ INFO : 2024-09-16 23:57:15,585 ] -           (relu): ReLU(inplace=True)
[ INFO : 2024-09-16 23:57:15,585 ] -           (linear2): Conv1d(64, 32, kernel_size=(1,), stride=(1,))
[ INFO : 2024-09-16 23:57:15,585 ] -           (sigmoid): Sigmoid()
[ INFO : 2024-09-16 23:57:15,585 ] -         )
[ INFO : 2024-09-16 23:57:15,585 ] -       )
[ INFO : 2024-09-16 23:57:15,585 ] -       (tdnnd3): CAMDenseTDNNLayer(
[ INFO : 2024-09-16 23:57:15,585 ] -         (nonlinear1): Sequential(
[ INFO : 2024-09-16 23:57:15,585 ] -           (batchnorm): BatchNorm1d(320, eps=1e-05, momentum=0.1, affine=True, track_running_stats=True)
[ INFO : 2024-09-16 23:57:15,585 ] -           (relu): ReLU(inplace=True)
[ INFO : 2024-09-16 23:57:15,585 ] -         )
[ INFO : 2024-09-16 23:57:15,585 ] -         (linear1): Conv1d(320, 128, kernel_size=(1,), stride=(1,), bias=False)
[ INFO : 2024-09-16 23:57:15,585 ] -         (nonlinear2): Sequential(
[ INFO : 2024-09-16 23:57:15,585 ] -           (batchnorm): BatchNorm1d(128, eps=1e-05, momentum=0.1, affine=True, track_running_stats=True)
[ INFO : 2024-09-16 23:57:15,585 ] -           (relu): ReLU(inplace=True)
[ INFO : 2024-09-16 23:57:15,585 ] -         )
[ INFO : 2024-09-16 23:57:15,585 ] -         (cam_layer): CAMLayer(
[ INFO : 2024-09-16 23:57:15,585 ] -           (linear_local): Conv1d(128, 32, kernel_size=(3,), stride=(1,), padding=(2,), dilation=(2,), bias=False)
[ INFO : 2024-09-16 23:57:15,585 ] -           (linear1): Conv1d(128, 64, kernel_size=(1,), stride=(1,))
[ INFO : 2024-09-16 23:57:15,585 ] -           (relu): ReLU(inplace=True)
[ INFO : 2024-09-16 23:57:15,585 ] -           (linear2): Conv1d(64, 32, kernel_size=(1,), stride=(1,))
[ INFO : 2024-09-16 23:57:15,585 ] -           (sigmoid): Sigmoid()
[ INFO : 2024-09-16 23:57:15,585 ] -         )
[ INFO : 2024-09-16 23:57:15,585 ] -       )
[ INFO : 2024-09-16 23:57:15,585 ] -       (tdnnd4): CAMDenseTDNNLayer(
[ INFO : 2024-09-16 23:57:15,585 ] -         (nonlinear1): Sequential(
[ INFO : 2024-09-16 23:57:15,585 ] -           (batchnorm): BatchNorm1d(352, eps=1e-05, momentum=0.1, affine=True, track_running_stats=True)
[ INFO : 2024-09-16 23:57:15,585 ] -           (relu): ReLU(inplace=True)
[ INFO : 2024-09-16 23:57:15,585 ] -         )
[ INFO : 2024-09-16 23:57:15,585 ] -         (linear1): Conv1d(352, 128, kernel_size=(1,), stride=(1,), bias=False)
[ INFO : 2024-09-16 23:57:15,585 ] -         (nonlinear2): Sequential(
[ INFO : 2024-09-16 23:57:15,585 ] -           (batchnorm): BatchNorm1d(128, eps=1e-05, momentum=0.1, affine=True, track_running_stats=True)
[ INFO : 2024-09-16 23:57:15,585 ] -           (relu): ReLU(inplace=True)
[ INFO : 2024-09-16 23:57:15,585 ] -         )
[ INFO : 2024-09-16 23:57:15,585 ] -         (cam_layer): CAMLayer(
[ INFO : 2024-09-16 23:57:15,585 ] -           (linear_local): Conv1d(128, 32, kernel_size=(3,), stride=(1,), padding=(2,), dilation=(2,), bias=False)
[ INFO : 2024-09-16 23:57:15,585 ] -           (linear1): Conv1d(128, 64, kernel_size=(1,), stride=(1,))
[ INFO : 2024-09-16 23:57:15,585 ] -           (relu): ReLU(inplace=True)
[ INFO : 2024-09-16 23:57:15,585 ] -           (linear2): Conv1d(64, 32, kernel_size=(1,), stride=(1,))
[ INFO : 2024-09-16 23:57:15,585 ] -           (sigmoid): Sigmoid()
[ INFO : 2024-09-16 23:57:15,585 ] -         )
[ INFO : 2024-09-16 23:57:15,585 ] -       )
[ INFO : 2024-09-16 23:57:15,585 ] -       (tdnnd5): CAMDenseTDNNLayer(
[ INFO : 2024-09-16 23:57:15,585 ] -         (nonlinear1): Sequential(
[ INFO : 2024-09-16 23:57:15,585 ] -           (batchnorm): BatchNorm1d(384, eps=1e-05, momentum=0.1, affine=True, track_running_stats=True)
[ INFO : 2024-09-16 23:57:15,585 ] -           (relu): ReLU(inplace=True)
[ INFO : 2024-09-16 23:57:15,585 ] -         )
[ INFO : 2024-09-16 23:57:15,585 ] -         (linear1): Conv1d(384, 128, kernel_size=(1,), stride=(1,), bias=False)
[ INFO : 2024-09-16 23:57:15,585 ] -         (nonlinear2): Sequential(
[ INFO : 2024-09-16 23:57:15,585 ] -           (batchnorm): BatchNorm1d(128, eps=1e-05, momentum=0.1, affine=True, track_running_stats=True)
[ INFO : 2024-09-16 23:57:15,586 ] -           (relu): ReLU(inplace=True)
[ INFO : 2024-09-16 23:57:15,586 ] -         )
[ INFO : 2024-09-16 23:57:15,586 ] -         (cam_layer): CAMLayer(
[ INFO : 2024-09-16 23:57:15,586 ] -           (linear_local): Conv1d(128, 32, kernel_size=(3,), stride=(1,), padding=(2,), dilation=(2,), bias=False)
[ INFO : 2024-09-16 23:57:15,586 ] -           (linear1): Conv1d(128, 64, kernel_size=(1,), stride=(1,))
[ INFO : 2024-09-16 23:57:15,586 ] -           (relu): ReLU(inplace=True)
[ INFO : 2024-09-16 23:57:15,586 ] -           (linear2): Conv1d(64, 32, kernel_size=(1,), stride=(1,))
[ INFO : 2024-09-16 23:57:15,586 ] -           (sigmoid): Sigmoid()
[ INFO : 2024-09-16 23:57:15,586 ] -         )
[ INFO : 2024-09-16 23:57:15,586 ] -       )
[ INFO : 2024-09-16 23:57:15,586 ] -       (tdnnd6): CAMDenseTDNNLayer(
[ INFO : 2024-09-16 23:57:15,586 ] -         (nonlinear1): Sequential(
[ INFO : 2024-09-16 23:57:15,586 ] -           (batchnorm): BatchNorm1d(416, eps=1e-05, momentum=0.1, affine=True, track_running_stats=True)
[ INFO : 2024-09-16 23:57:15,586 ] -           (relu): ReLU(inplace=True)
[ INFO : 2024-09-16 23:57:15,586 ] -         )
[ INFO : 2024-09-16 23:57:15,586 ] -         (linear1): Conv1d(416, 128, kernel_size=(1,), stride=(1,), bias=False)
[ INFO : 2024-09-16 23:57:15,586 ] -         (nonlinear2): Sequential(
[ INFO : 2024-09-16 23:57:15,586 ] -           (batchnorm): BatchNorm1d(128, eps=1e-05, momentum=0.1, affine=True, track_running_stats=True)
[ INFO : 2024-09-16 23:57:15,586 ] -           (relu): ReLU(inplace=True)
[ INFO : 2024-09-16 23:57:15,586 ] -         )
[ INFO : 2024-09-16 23:57:15,586 ] -         (cam_layer): CAMLayer(
[ INFO : 2024-09-16 23:57:15,586 ] -           (linear_local): Conv1d(128, 32, kernel_size=(3,), stride=(1,), padding=(2,), dilation=(2,), bias=False)
[ INFO : 2024-09-16 23:57:15,586 ] -           (linear1): Conv1d(128, 64, kernel_size=(1,), stride=(1,))
[ INFO : 2024-09-16 23:57:15,586 ] -           (relu): ReLU(inplace=True)
[ INFO : 2024-09-16 23:57:15,586 ] -           (linear2): Conv1d(64, 32, kernel_size=(1,), stride=(1,))
[ INFO : 2024-09-16 23:57:15,586 ] -           (sigmoid): Sigmoid()
[ INFO : 2024-09-16 23:57:15,586 ] -         )
[ INFO : 2024-09-16 23:57:15,586 ] -       )
[ INFO : 2024-09-16 23:57:15,586 ] -       (tdnnd7): CAMDenseTDNNLayer(
[ INFO : 2024-09-16 23:57:15,586 ] -         (nonlinear1): Sequential(
[ INFO : 2024-09-16 23:57:15,586 ] -           (batchnorm): BatchNorm1d(448, eps=1e-05, momentum=0.1, affine=True, track_running_stats=True)
[ INFO : 2024-09-16 23:57:15,586 ] -           (relu): ReLU(inplace=True)
[ INFO : 2024-09-16 23:57:15,586 ] -         )
[ INFO : 2024-09-16 23:57:15,586 ] -         (linear1): Conv1d(448, 128, kernel_size=(1,), stride=(1,), bias=False)
[ INFO : 2024-09-16 23:57:15,586 ] -         (nonlinear2): Sequential(
[ INFO : 2024-09-16 23:57:15,586 ] -           (batchnorm): BatchNorm1d(128, eps=1e-05, momentum=0.1, affine=True, track_running_stats=True)
[ INFO : 2024-09-16 23:57:15,586 ] -           (relu): ReLU(inplace=True)
[ INFO : 2024-09-16 23:57:15,586 ] -         )
[ INFO : 2024-09-16 23:57:15,586 ] -         (cam_layer): CAMLayer(
[ INFO : 2024-09-16 23:57:15,586 ] -           (linear_local): Conv1d(128, 32, kernel_size=(3,), stride=(1,), padding=(2,), dilation=(2,), bias=False)
[ INFO : 2024-09-16 23:57:15,586 ] -           (linear1): Conv1d(128, 64, kernel_size=(1,), stride=(1,))
[ INFO : 2024-09-16 23:57:15,586 ] -           (relu): ReLU(inplace=True)
[ INFO : 2024-09-16 23:57:15,586 ] -           (linear2): Conv1d(64, 32, kernel_size=(1,), stride=(1,))
[ INFO : 2024-09-16 23:57:15,586 ] -           (sigmoid): Sigmoid()
[ INFO : 2024-09-16 23:57:15,586 ] -         )
[ INFO : 2024-09-16 23:57:15,586 ] -       )
[ INFO : 2024-09-16 23:57:15,586 ] -       (tdnnd8): CAMDenseTDNNLayer(
[ INFO : 2024-09-16 23:57:15,586 ] -         (nonlinear1): Sequential(
[ INFO : 2024-09-16 23:57:15,586 ] -           (batchnorm): BatchNorm1d(480, eps=1e-05, momentum=0.1, affine=True, track_running_stats=True)
[ INFO : 2024-09-16 23:57:15,586 ] -           (relu): ReLU(inplace=True)
[ INFO : 2024-09-16 23:57:15,586 ] -         )
[ INFO : 2024-09-16 23:57:15,586 ] -         (linear1): Conv1d(480, 128, kernel_size=(1,), stride=(1,), bias=False)
[ INFO : 2024-09-16 23:57:15,586 ] -         (nonlinear2): Sequential(
[ INFO : 2024-09-16 23:57:15,586 ] -           (batchnorm): BatchNorm1d(128, eps=1e-05, momentum=0.1, affine=True, track_running_stats=True)
[ INFO : 2024-09-16 23:57:15,586 ] -           (relu): ReLU(inplace=True)
[ INFO : 2024-09-16 23:57:15,586 ] -         )
[ INFO : 2024-09-16 23:57:15,586 ] -         (cam_layer): CAMLayer(
[ INFO : 2024-09-16 23:57:15,586 ] -           (linear_local): Conv1d(128, 32, kernel_size=(3,), stride=(1,), padding=(2,), dilation=(2,), bias=False)
[ INFO : 2024-09-16 23:57:15,586 ] -           (linear1): Conv1d(128, 64, kernel_size=(1,), stride=(1,))
[ INFO : 2024-09-16 23:57:15,586 ] -           (relu): ReLU(inplace=True)
[ INFO : 2024-09-16 23:57:15,586 ] -           (linear2): Conv1d(64, 32, kernel_size=(1,), stride=(1,))
[ INFO : 2024-09-16 23:57:15,586 ] -           (sigmoid): Sigmoid()
[ INFO : 2024-09-16 23:57:15,587 ] -         )
[ INFO : 2024-09-16 23:57:15,587 ] -       )
[ INFO : 2024-09-16 23:57:15,587 ] -       (tdnnd9): CAMDenseTDNNLayer(
[ INFO : 2024-09-16 23:57:15,587 ] -         (nonlinear1): Sequential(
[ INFO : 2024-09-16 23:57:15,587 ] -           (batchnorm): BatchNorm1d(512, eps=1e-05, momentum=0.1, affine=True, track_running_stats=True)
[ INFO : 2024-09-16 23:57:15,587 ] -           (relu): ReLU(inplace=True)
[ INFO : 2024-09-16 23:57:15,587 ] -         )
[ INFO : 2024-09-16 23:57:15,587 ] -         (linear1): Conv1d(512, 128, kernel_size=(1,), stride=(1,), bias=False)
[ INFO : 2024-09-16 23:57:15,587 ] -         (nonlinear2): Sequential(
[ INFO : 2024-09-16 23:57:15,587 ] -           (batchnorm): BatchNorm1d(128, eps=1e-05, momentum=0.1, affine=True, track_running_stats=True)
[ INFO : 2024-09-16 23:57:15,587 ] -           (relu): ReLU(inplace=True)
[ INFO : 2024-09-16 23:57:15,587 ] -         )
[ INFO : 2024-09-16 23:57:15,587 ] -         (cam_layer): CAMLayer(
[ INFO : 2024-09-16 23:57:15,587 ] -           (linear_local): Conv1d(128, 32, kernel_size=(3,), stride=(1,), padding=(2,), dilation=(2,), bias=False)
[ INFO : 2024-09-16 23:57:15,587 ] -           (linear1): Conv1d(128, 64, kernel_size=(1,), stride=(1,))
[ INFO : 2024-09-16 23:57:15,587 ] -           (relu): ReLU(inplace=True)
[ INFO : 2024-09-16 23:57:15,587 ] -           (linear2): Conv1d(64, 32, kernel_size=(1,), stride=(1,))
[ INFO : 2024-09-16 23:57:15,587 ] -           (sigmoid): Sigmoid()
[ INFO : 2024-09-16 23:57:15,587 ] -         )
[ INFO : 2024-09-16 23:57:15,587 ] -       )
[ INFO : 2024-09-16 23:57:15,587 ] -       (tdnnd10): CAMDenseTDNNLayer(
[ INFO : 2024-09-16 23:57:15,587 ] -         (nonlinear1): Sequential(
[ INFO : 2024-09-16 23:57:15,587 ] -           (batchnorm): BatchNorm1d(544, eps=1e-05, momentum=0.1, affine=True, track_running_stats=True)
[ INFO : 2024-09-16 23:57:15,587 ] -           (relu): ReLU(inplace=True)
[ INFO : 2024-09-16 23:57:15,587 ] -         )
[ INFO : 2024-09-16 23:57:15,587 ] -         (linear1): Conv1d(544, 128, kernel_size=(1,), stride=(1,), bias=False)
[ INFO : 2024-09-16 23:57:15,587 ] -         (nonlinear2): Sequential(
[ INFO : 2024-09-16 23:57:15,587 ] -           (batchnorm): BatchNorm1d(128, eps=1e-05, momentum=0.1, affine=True, track_running_stats=True)
[ INFO : 2024-09-16 23:57:15,587 ] -           (relu): ReLU(inplace=True)
[ INFO : 2024-09-16 23:57:15,587 ] -         )
[ INFO : 2024-09-16 23:57:15,587 ] -         (cam_layer): CAMLayer(
[ INFO : 2024-09-16 23:57:15,587 ] -           (linear_local): Conv1d(128, 32, kernel_size=(3,), stride=(1,), padding=(2,), dilation=(2,), bias=False)
[ INFO : 2024-09-16 23:57:15,587 ] -           (linear1): Conv1d(128, 64, kernel_size=(1,), stride=(1,))
[ INFO : 2024-09-16 23:57:15,587 ] -           (relu): ReLU(inplace=True)
[ INFO : 2024-09-16 23:57:15,587 ] -           (linear2): Conv1d(64, 32, kernel_size=(1,), stride=(1,))
[ INFO : 2024-09-16 23:57:15,587 ] -           (sigmoid): Sigmoid()
[ INFO : 2024-09-16 23:57:15,587 ] -         )
[ INFO : 2024-09-16 23:57:15,587 ] -       )
[ INFO : 2024-09-16 23:57:15,587 ] -       (tdnnd11): CAMDenseTDNNLayer(
[ INFO : 2024-09-16 23:57:15,587 ] -         (nonlinear1): Sequential(
[ INFO : 2024-09-16 23:57:15,587 ] -           (batchnorm): BatchNorm1d(576, eps=1e-05, momentum=0.1, affine=True, track_running_stats=True)
[ INFO : 2024-09-16 23:57:15,587 ] -           (relu): ReLU(inplace=True)
[ INFO : 2024-09-16 23:57:15,587 ] -         )
[ INFO : 2024-09-16 23:57:15,587 ] -         (linear1): Conv1d(576, 128, kernel_size=(1,), stride=(1,), bias=False)
[ INFO : 2024-09-16 23:57:15,587 ] -         (nonlinear2): Sequential(
[ INFO : 2024-09-16 23:57:15,587 ] -           (batchnorm): BatchNorm1d(128, eps=1e-05, momentum=0.1, affine=True, track_running_stats=True)
[ INFO : 2024-09-16 23:57:15,587 ] -           (relu): ReLU(inplace=True)
[ INFO : 2024-09-16 23:57:15,587 ] -         )
[ INFO : 2024-09-16 23:57:15,587 ] -         (cam_layer): CAMLayer(
[ INFO : 2024-09-16 23:57:15,587 ] -           (linear_local): Conv1d(128, 32, kernel_size=(3,), stride=(1,), padding=(2,), dilation=(2,), bias=False)
[ INFO : 2024-09-16 23:57:15,587 ] -           (linear1): Conv1d(128, 64, kernel_size=(1,), stride=(1,))
[ INFO : 2024-09-16 23:57:15,587 ] -           (relu): ReLU(inplace=True)
[ INFO : 2024-09-16 23:57:15,587 ] -           (linear2): Conv1d(64, 32, kernel_size=(1,), stride=(1,))
[ INFO : 2024-09-16 23:57:15,587 ] -           (sigmoid): Sigmoid()
[ INFO : 2024-09-16 23:57:15,587 ] -         )
[ INFO : 2024-09-16 23:57:15,587 ] -       )
[ INFO : 2024-09-16 23:57:15,587 ] -       (tdnnd12): CAMDenseTDNNLayer(
[ INFO : 2024-09-16 23:57:15,587 ] -         (nonlinear1): Sequential(
[ INFO : 2024-09-16 23:57:15,587 ] -           (batchnorm): BatchNorm1d(608, eps=1e-05, momentum=0.1, affine=True, track_running_stats=True)
[ INFO : 2024-09-16 23:57:15,587 ] -           (relu): ReLU(inplace=True)
[ INFO : 2024-09-16 23:57:15,588 ] -         )
[ INFO : 2024-09-16 23:57:15,588 ] -         (linear1): Conv1d(608, 128, kernel_size=(1,), stride=(1,), bias=False)
[ INFO : 2024-09-16 23:57:15,588 ] -         (nonlinear2): Sequential(
[ INFO : 2024-09-16 23:57:15,588 ] -           (batchnorm): BatchNorm1d(128, eps=1e-05, momentum=0.1, affine=True, track_running_stats=True)
[ INFO : 2024-09-16 23:57:15,588 ] -           (relu): ReLU(inplace=True)
[ INFO : 2024-09-16 23:57:15,588 ] -         )
[ INFO : 2024-09-16 23:57:15,588 ] -         (cam_layer): CAMLayer(
[ INFO : 2024-09-16 23:57:15,588 ] -           (linear_local): Conv1d(128, 32, kernel_size=(3,), stride=(1,), padding=(2,), dilation=(2,), bias=False)
[ INFO : 2024-09-16 23:57:15,588 ] -           (linear1): Conv1d(128, 64, kernel_size=(1,), stride=(1,))
[ INFO : 2024-09-16 23:57:15,588 ] -           (relu): ReLU(inplace=True)
[ INFO : 2024-09-16 23:57:15,588 ] -           (linear2): Conv1d(64, 32, kernel_size=(1,), stride=(1,))
[ INFO : 2024-09-16 23:57:15,588 ] -           (sigmoid): Sigmoid()
[ INFO : 2024-09-16 23:57:15,588 ] -         )
[ INFO : 2024-09-16 23:57:15,588 ] -       )
[ INFO : 2024-09-16 23:57:15,588 ] -       (tdnnd13): CAMDenseTDNNLayer(
[ INFO : 2024-09-16 23:57:15,588 ] -         (nonlinear1): Sequential(
[ INFO : 2024-09-16 23:57:15,588 ] -           (batchnorm): BatchNorm1d(640, eps=1e-05, momentum=0.1, affine=True, track_running_stats=True)
[ INFO : 2024-09-16 23:57:15,588 ] -           (relu): ReLU(inplace=True)
[ INFO : 2024-09-16 23:57:15,588 ] -         )
[ INFO : 2024-09-16 23:57:15,588 ] -         (linear1): Conv1d(640, 128, kernel_size=(1,), stride=(1,), bias=False)
[ INFO : 2024-09-16 23:57:15,588 ] -         (nonlinear2): Sequential(
[ INFO : 2024-09-16 23:57:15,588 ] -           (batchnorm): BatchNorm1d(128, eps=1e-05, momentum=0.1, affine=True, track_running_stats=True)
[ INFO : 2024-09-16 23:57:15,588 ] -           (relu): ReLU(inplace=True)
[ INFO : 2024-09-16 23:57:15,588 ] -         )
[ INFO : 2024-09-16 23:57:15,588 ] -         (cam_layer): CAMLayer(
[ INFO : 2024-09-16 23:57:15,588 ] -           (linear_local): Conv1d(128, 32, kernel_size=(3,), stride=(1,), padding=(2,), dilation=(2,), bias=False)
[ INFO : 2024-09-16 23:57:15,588 ] -           (linear1): Conv1d(128, 64, kernel_size=(1,), stride=(1,))
[ INFO : 2024-09-16 23:57:15,588 ] -           (relu): ReLU(inplace=True)
[ INFO : 2024-09-16 23:57:15,588 ] -           (linear2): Conv1d(64, 32, kernel_size=(1,), stride=(1,))
[ INFO : 2024-09-16 23:57:15,588 ] -           (sigmoid): Sigmoid()
[ INFO : 2024-09-16 23:57:15,588 ] -         )
[ INFO : 2024-09-16 23:57:15,588 ] -       )
[ INFO : 2024-09-16 23:57:15,588 ] -       (tdnnd14): CAMDenseTDNNLayer(
[ INFO : 2024-09-16 23:57:15,588 ] -         (nonlinear1): Sequential(
[ INFO : 2024-09-16 23:57:15,588 ] -           (batchnorm): BatchNorm1d(672, eps=1e-05, momentum=0.1, affine=True, track_running_stats=True)
[ INFO : 2024-09-16 23:57:15,588 ] -           (relu): ReLU(inplace=True)
[ INFO : 2024-09-16 23:57:15,588 ] -         )
[ INFO : 2024-09-16 23:57:15,588 ] -         (linear1): Conv1d(672, 128, kernel_size=(1,), stride=(1,), bias=False)
[ INFO : 2024-09-16 23:57:15,588 ] -         (nonlinear2): Sequential(
[ INFO : 2024-09-16 23:57:15,588 ] -           (batchnorm): BatchNorm1d(128, eps=1e-05, momentum=0.1, affine=True, track_running_stats=True)
[ INFO : 2024-09-16 23:57:15,588 ] -           (relu): ReLU(inplace=True)
[ INFO : 2024-09-16 23:57:15,588 ] -         )
[ INFO : 2024-09-16 23:57:15,588 ] -         (cam_layer): CAMLayer(
[ INFO : 2024-09-16 23:57:15,588 ] -           (linear_local): Conv1d(128, 32, kernel_size=(3,), stride=(1,), padding=(2,), dilation=(2,), bias=False)
[ INFO : 2024-09-16 23:57:15,588 ] -           (linear1): Conv1d(128, 64, kernel_size=(1,), stride=(1,))
[ INFO : 2024-09-16 23:57:15,588 ] -           (relu): ReLU(inplace=True)
[ INFO : 2024-09-16 23:57:15,588 ] -           (linear2): Conv1d(64, 32, kernel_size=(1,), stride=(1,))
[ INFO : 2024-09-16 23:57:15,588 ] -           (sigmoid): Sigmoid()
[ INFO : 2024-09-16 23:57:15,588 ] -         )
[ INFO : 2024-09-16 23:57:15,588 ] -       )
[ INFO : 2024-09-16 23:57:15,588 ] -       (tdnnd15): CAMDenseTDNNLayer(
[ INFO : 2024-09-16 23:57:15,588 ] -         (nonlinear1): Sequential(
[ INFO : 2024-09-16 23:57:15,588 ] -           (batchnorm): BatchNorm1d(704, eps=1e-05, momentum=0.1, affine=True, track_running_stats=True)
[ INFO : 2024-09-16 23:57:15,588 ] -           (relu): ReLU(inplace=True)
[ INFO : 2024-09-16 23:57:15,588 ] -         )
[ INFO : 2024-09-16 23:57:15,588 ] -         (linear1): Conv1d(704, 128, kernel_size=(1,), stride=(1,), bias=False)
[ INFO : 2024-09-16 23:57:15,588 ] -         (nonlinear2): Sequential(
[ INFO : 2024-09-16 23:57:15,588 ] -           (batchnorm): BatchNorm1d(128, eps=1e-05, momentum=0.1, affine=True, track_running_stats=True)
[ INFO : 2024-09-16 23:57:15,588 ] -           (relu): ReLU(inplace=True)
[ INFO : 2024-09-16 23:57:15,589 ] -         )
[ INFO : 2024-09-16 23:57:15,589 ] -         (cam_layer): CAMLayer(
[ INFO : 2024-09-16 23:57:15,589 ] -           (linear_local): Conv1d(128, 32, kernel_size=(3,), stride=(1,), padding=(2,), dilation=(2,), bias=False)
[ INFO : 2024-09-16 23:57:15,589 ] -           (linear1): Conv1d(128, 64, kernel_size=(1,), stride=(1,))
[ INFO : 2024-09-16 23:57:15,589 ] -           (relu): ReLU(inplace=True)
[ INFO : 2024-09-16 23:57:15,589 ] -           (linear2): Conv1d(64, 32, kernel_size=(1,), stride=(1,))
[ INFO : 2024-09-16 23:57:15,589 ] -           (sigmoid): Sigmoid()
[ INFO : 2024-09-16 23:57:15,589 ] -         )
[ INFO : 2024-09-16 23:57:15,589 ] -       )
[ INFO : 2024-09-16 23:57:15,589 ] -       (tdnnd16): CAMDenseTDNNLayer(
[ INFO : 2024-09-16 23:57:15,589 ] -         (nonlinear1): Sequential(
[ INFO : 2024-09-16 23:57:15,589 ] -           (batchnorm): BatchNorm1d(736, eps=1e-05, momentum=0.1, affine=True, track_running_stats=True)
[ INFO : 2024-09-16 23:57:15,589 ] -           (relu): ReLU(inplace=True)
[ INFO : 2024-09-16 23:57:15,589 ] -         )
[ INFO : 2024-09-16 23:57:15,589 ] -         (linear1): Conv1d(736, 128, kernel_size=(1,), stride=(1,), bias=False)
[ INFO : 2024-09-16 23:57:15,589 ] -         (nonlinear2): Sequential(
[ INFO : 2024-09-16 23:57:15,589 ] -           (batchnorm): BatchNorm1d(128, eps=1e-05, momentum=0.1, affine=True, track_running_stats=True)
[ INFO : 2024-09-16 23:57:15,589 ] -           (relu): ReLU(inplace=True)
[ INFO : 2024-09-16 23:57:15,589 ] -         )
[ INFO : 2024-09-16 23:57:15,589 ] -         (cam_layer): CAMLayer(
[ INFO : 2024-09-16 23:57:15,589 ] -           (linear_local): Conv1d(128, 32, kernel_size=(3,), stride=(1,), padding=(2,), dilation=(2,), bias=False)
[ INFO : 2024-09-16 23:57:15,589 ] -           (linear1): Conv1d(128, 64, kernel_size=(1,), stride=(1,))
[ INFO : 2024-09-16 23:57:15,589 ] -           (relu): ReLU(inplace=True)
[ INFO : 2024-09-16 23:57:15,589 ] -           (linear2): Conv1d(64, 32, kernel_size=(1,), stride=(1,))
[ INFO : 2024-09-16 23:57:15,589 ] -           (sigmoid): Sigmoid()
[ INFO : 2024-09-16 23:57:15,589 ] -         )
[ INFO : 2024-09-16 23:57:15,589 ] -       )
[ INFO : 2024-09-16 23:57:15,589 ] -       (tdnnd17): CAMDenseTDNNLayer(
[ INFO : 2024-09-16 23:57:15,589 ] -         (nonlinear1): Sequential(
[ INFO : 2024-09-16 23:57:15,589 ] -           (batchnorm): BatchNorm1d(768, eps=1e-05, momentum=0.1, affine=True, track_running_stats=True)
[ INFO : 2024-09-16 23:57:15,589 ] -           (relu): ReLU(inplace=True)
[ INFO : 2024-09-16 23:57:15,589 ] -         )
[ INFO : 2024-09-16 23:57:15,589 ] -         (linear1): Conv1d(768, 128, kernel_size=(1,), stride=(1,), bias=False)
[ INFO : 2024-09-16 23:57:15,589 ] -         (nonlinear2): Sequential(
[ INFO : 2024-09-16 23:57:15,589 ] -           (batchnorm): BatchNorm1d(128, eps=1e-05, momentum=0.1, affine=True, track_running_stats=True)
[ INFO : 2024-09-16 23:57:15,589 ] -           (relu): ReLU(inplace=True)
[ INFO : 2024-09-16 23:57:15,589 ] -         )
[ INFO : 2024-09-16 23:57:15,589 ] -         (cam_layer): CAMLayer(
[ INFO : 2024-09-16 23:57:15,589 ] -           (linear_local): Conv1d(128, 32, kernel_size=(3,), stride=(1,), padding=(2,), dilation=(2,), bias=False)
[ INFO : 2024-09-16 23:57:15,589 ] -           (linear1): Conv1d(128, 64, kernel_size=(1,), stride=(1,))
[ INFO : 2024-09-16 23:57:15,589 ] -           (relu): ReLU(inplace=True)
[ INFO : 2024-09-16 23:57:15,589 ] -           (linear2): Conv1d(64, 32, kernel_size=(1,), stride=(1,))
[ INFO : 2024-09-16 23:57:15,589 ] -           (sigmoid): Sigmoid()
[ INFO : 2024-09-16 23:57:15,589 ] -         )
[ INFO : 2024-09-16 23:57:15,589 ] -       )
[ INFO : 2024-09-16 23:57:15,589 ] -       (tdnnd18): CAMDenseTDNNLayer(
[ INFO : 2024-09-16 23:57:15,589 ] -         (nonlinear1): Sequential(
[ INFO : 2024-09-16 23:57:15,589 ] -           (batchnorm): BatchNorm1d(800, eps=1e-05, momentum=0.1, affine=True, track_running_stats=True)
[ INFO : 2024-09-16 23:57:15,589 ] -           (relu): ReLU(inplace=True)
[ INFO : 2024-09-16 23:57:15,589 ] -         )
[ INFO : 2024-09-16 23:57:15,589 ] -         (linear1): Conv1d(800, 128, kernel_size=(1,), stride=(1,), bias=False)
[ INFO : 2024-09-16 23:57:15,589 ] -         (nonlinear2): Sequential(
[ INFO : 2024-09-16 23:57:15,589 ] -           (batchnorm): BatchNorm1d(128, eps=1e-05, momentum=0.1, affine=True, track_running_stats=True)
[ INFO : 2024-09-16 23:57:15,589 ] -           (relu): ReLU(inplace=True)
[ INFO : 2024-09-16 23:57:15,589 ] -         )
[ INFO : 2024-09-16 23:57:15,589 ] -         (cam_layer): CAMLayer(
[ INFO : 2024-09-16 23:57:15,589 ] -           (linear_local): Conv1d(128, 32, kernel_size=(3,), stride=(1,), padding=(2,), dilation=(2,), bias=False)
[ INFO : 2024-09-16 23:57:15,589 ] -           (linear1): Conv1d(128, 64, kernel_size=(1,), stride=(1,))
[ INFO : 2024-09-16 23:57:15,589 ] -           (relu): ReLU(inplace=True)
[ INFO : 2024-09-16 23:57:15,589 ] -           (linear2): Conv1d(64, 32, kernel_size=(1,), stride=(1,))
[ INFO : 2024-09-16 23:57:15,590 ] -           (sigmoid): Sigmoid()
[ INFO : 2024-09-16 23:57:15,590 ] -         )
[ INFO : 2024-09-16 23:57:15,590 ] -       )
[ INFO : 2024-09-16 23:57:15,590 ] -       (tdnnd19): CAMDenseTDNNLayer(
[ INFO : 2024-09-16 23:57:15,590 ] -         (nonlinear1): Sequential(
[ INFO : 2024-09-16 23:57:15,590 ] -           (batchnorm): BatchNorm1d(832, eps=1e-05, momentum=0.1, affine=True, track_running_stats=True)
[ INFO : 2024-09-16 23:57:15,590 ] -           (relu): ReLU(inplace=True)
[ INFO : 2024-09-16 23:57:15,590 ] -         )
[ INFO : 2024-09-16 23:57:15,590 ] -         (linear1): Conv1d(832, 128, kernel_size=(1,), stride=(1,), bias=False)
[ INFO : 2024-09-16 23:57:15,590 ] -         (nonlinear2): Sequential(
[ INFO : 2024-09-16 23:57:15,590 ] -           (batchnorm): BatchNorm1d(128, eps=1e-05, momentum=0.1, affine=True, track_running_stats=True)
[ INFO : 2024-09-16 23:57:15,590 ] -           (relu): ReLU(inplace=True)
[ INFO : 2024-09-16 23:57:15,590 ] -         )
[ INFO : 2024-09-16 23:57:15,590 ] -         (cam_layer): CAMLayer(
[ INFO : 2024-09-16 23:57:15,590 ] -           (linear_local): Conv1d(128, 32, kernel_size=(3,), stride=(1,), padding=(2,), dilation=(2,), bias=False)
[ INFO : 2024-09-16 23:57:15,590 ] -           (linear1): Conv1d(128, 64, kernel_size=(1,), stride=(1,))
[ INFO : 2024-09-16 23:57:15,590 ] -           (relu): ReLU(inplace=True)
[ INFO : 2024-09-16 23:57:15,590 ] -           (linear2): Conv1d(64, 32, kernel_size=(1,), stride=(1,))
[ INFO : 2024-09-16 23:57:15,590 ] -           (sigmoid): Sigmoid()
[ INFO : 2024-09-16 23:57:15,590 ] -         )
[ INFO : 2024-09-16 23:57:15,590 ] -       )
[ INFO : 2024-09-16 23:57:15,590 ] -       (tdnnd20): CAMDenseTDNNLayer(
[ INFO : 2024-09-16 23:57:15,590 ] -         (nonlinear1): Sequential(
[ INFO : 2024-09-16 23:57:15,590 ] -           (batchnorm): BatchNorm1d(864, eps=1e-05, momentum=0.1, affine=True, track_running_stats=True)
[ INFO : 2024-09-16 23:57:15,590 ] -           (relu): ReLU(inplace=True)
[ INFO : 2024-09-16 23:57:15,590 ] -         )
[ INFO : 2024-09-16 23:57:15,590 ] -         (linear1): Conv1d(864, 128, kernel_size=(1,), stride=(1,), bias=False)
[ INFO : 2024-09-16 23:57:15,590 ] -         (nonlinear2): Sequential(
[ INFO : 2024-09-16 23:57:15,590 ] -           (batchnorm): BatchNorm1d(128, eps=1e-05, momentum=0.1, affine=True, track_running_stats=True)
[ INFO : 2024-09-16 23:57:15,590 ] -           (relu): ReLU(inplace=True)
[ INFO : 2024-09-16 23:57:15,590 ] -         )
[ INFO : 2024-09-16 23:57:15,590 ] -         (cam_layer): CAMLayer(
[ INFO : 2024-09-16 23:57:15,590 ] -           (linear_local): Conv1d(128, 32, kernel_size=(3,), stride=(1,), padding=(2,), dilation=(2,), bias=False)
[ INFO : 2024-09-16 23:57:15,590 ] -           (linear1): Conv1d(128, 64, kernel_size=(1,), stride=(1,))
[ INFO : 2024-09-16 23:57:15,590 ] -           (relu): ReLU(inplace=True)
[ INFO : 2024-09-16 23:57:15,590 ] -           (linear2): Conv1d(64, 32, kernel_size=(1,), stride=(1,))
[ INFO : 2024-09-16 23:57:15,590 ] -           (sigmoid): Sigmoid()
[ INFO : 2024-09-16 23:57:15,590 ] -         )
[ INFO : 2024-09-16 23:57:15,590 ] -       )
[ INFO : 2024-09-16 23:57:15,590 ] -       (tdnnd21): CAMDenseTDNNLayer(
[ INFO : 2024-09-16 23:57:15,590 ] -         (nonlinear1): Sequential(
[ INFO : 2024-09-16 23:57:15,590 ] -           (batchnorm): BatchNorm1d(896, eps=1e-05, momentum=0.1, affine=True, track_running_stats=True)
[ INFO : 2024-09-16 23:57:15,590 ] -           (relu): ReLU(inplace=True)
[ INFO : 2024-09-16 23:57:15,590 ] -         )
[ INFO : 2024-09-16 23:57:15,590 ] -         (linear1): Conv1d(896, 128, kernel_size=(1,), stride=(1,), bias=False)
[ INFO : 2024-09-16 23:57:15,590 ] -         (nonlinear2): Sequential(
[ INFO : 2024-09-16 23:57:15,590 ] -           (batchnorm): BatchNorm1d(128, eps=1e-05, momentum=0.1, affine=True, track_running_stats=True)
[ INFO : 2024-09-16 23:57:15,590 ] -           (relu): ReLU(inplace=True)
[ INFO : 2024-09-16 23:57:15,590 ] -         )
[ INFO : 2024-09-16 23:57:15,590 ] -         (cam_layer): CAMLayer(
[ INFO : 2024-09-16 23:57:15,590 ] -           (linear_local): Conv1d(128, 32, kernel_size=(3,), stride=(1,), padding=(2,), dilation=(2,), bias=False)
[ INFO : 2024-09-16 23:57:15,590 ] -           (linear1): Conv1d(128, 64, kernel_size=(1,), stride=(1,))
[ INFO : 2024-09-16 23:57:15,590 ] -           (relu): ReLU(inplace=True)
[ INFO : 2024-09-16 23:57:15,590 ] -           (linear2): Conv1d(64, 32, kernel_size=(1,), stride=(1,))
[ INFO : 2024-09-16 23:57:15,590 ] -           (sigmoid): Sigmoid()
[ INFO : 2024-09-16 23:57:15,590 ] -         )
[ INFO : 2024-09-16 23:57:15,590 ] -       )
[ INFO : 2024-09-16 23:57:15,590 ] -       (tdnnd22): CAMDenseTDNNLayer(
[ INFO : 2024-09-16 23:57:15,590 ] -         (nonlinear1): Sequential(
[ INFO : 2024-09-16 23:57:15,590 ] -           (batchnorm): BatchNorm1d(928, eps=1e-05, momentum=0.1, affine=True, track_running_stats=True)
[ INFO : 2024-09-16 23:57:15,591 ] -           (relu): ReLU(inplace=True)
[ INFO : 2024-09-16 23:57:15,591 ] -         )
[ INFO : 2024-09-16 23:57:15,591 ] -         (linear1): Conv1d(928, 128, kernel_size=(1,), stride=(1,), bias=False)
[ INFO : 2024-09-16 23:57:15,591 ] -         (nonlinear2): Sequential(
[ INFO : 2024-09-16 23:57:15,591 ] -           (batchnorm): BatchNorm1d(128, eps=1e-05, momentum=0.1, affine=True, track_running_stats=True)
[ INFO : 2024-09-16 23:57:15,591 ] -           (relu): ReLU(inplace=True)
[ INFO : 2024-09-16 23:57:15,591 ] -         )
[ INFO : 2024-09-16 23:57:15,591 ] -         (cam_layer): CAMLayer(
[ INFO : 2024-09-16 23:57:15,591 ] -           (linear_local): Conv1d(128, 32, kernel_size=(3,), stride=(1,), padding=(2,), dilation=(2,), bias=False)
[ INFO : 2024-09-16 23:57:15,591 ] -           (linear1): Conv1d(128, 64, kernel_size=(1,), stride=(1,))
[ INFO : 2024-09-16 23:57:15,591 ] -           (relu): ReLU(inplace=True)
[ INFO : 2024-09-16 23:57:15,591 ] -           (linear2): Conv1d(64, 32, kernel_size=(1,), stride=(1,))
[ INFO : 2024-09-16 23:57:15,591 ] -           (sigmoid): Sigmoid()
[ INFO : 2024-09-16 23:57:15,591 ] -         )
[ INFO : 2024-09-16 23:57:15,591 ] -       )
[ INFO : 2024-09-16 23:57:15,591 ] -       (tdnnd23): CAMDenseTDNNLayer(
[ INFO : 2024-09-16 23:57:15,591 ] -         (nonlinear1): Sequential(
[ INFO : 2024-09-16 23:57:15,591 ] -           (batchnorm): BatchNorm1d(960, eps=1e-05, momentum=0.1, affine=True, track_running_stats=True)
[ INFO : 2024-09-16 23:57:15,591 ] -           (relu): ReLU(inplace=True)
[ INFO : 2024-09-16 23:57:15,591 ] -         )
[ INFO : 2024-09-16 23:57:15,591 ] -         (linear1): Conv1d(960, 128, kernel_size=(1,), stride=(1,), bias=False)
[ INFO : 2024-09-16 23:57:15,591 ] -         (nonlinear2): Sequential(
[ INFO : 2024-09-16 23:57:15,591 ] -           (batchnorm): BatchNorm1d(128, eps=1e-05, momentum=0.1, affine=True, track_running_stats=True)
[ INFO : 2024-09-16 23:57:15,591 ] -           (relu): ReLU(inplace=True)
[ INFO : 2024-09-16 23:57:15,591 ] -         )
[ INFO : 2024-09-16 23:57:15,591 ] -         (cam_layer): CAMLayer(
[ INFO : 2024-09-16 23:57:15,591 ] -           (linear_local): Conv1d(128, 32, kernel_size=(3,), stride=(1,), padding=(2,), dilation=(2,), bias=False)
[ INFO : 2024-09-16 23:57:15,591 ] -           (linear1): Conv1d(128, 64, kernel_size=(1,), stride=(1,))
[ INFO : 2024-09-16 23:57:15,591 ] -           (relu): ReLU(inplace=True)
[ INFO : 2024-09-16 23:57:15,591 ] -           (linear2): Conv1d(64, 32, kernel_size=(1,), stride=(1,))
[ INFO : 2024-09-16 23:57:15,591 ] -           (sigmoid): Sigmoid()
[ INFO : 2024-09-16 23:57:15,591 ] -         )
[ INFO : 2024-09-16 23:57:15,591 ] -       )
[ INFO : 2024-09-16 23:57:15,591 ] -       (tdnnd24): CAMDenseTDNNLayer(
[ INFO : 2024-09-16 23:57:15,591 ] -         (nonlinear1): Sequential(
[ INFO : 2024-09-16 23:57:15,591 ] -           (batchnorm): BatchNorm1d(992, eps=1e-05, momentum=0.1, affine=True, track_running_stats=True)
[ INFO : 2024-09-16 23:57:15,591 ] -           (relu): ReLU(inplace=True)
[ INFO : 2024-09-16 23:57:15,591 ] -         )
[ INFO : 2024-09-16 23:57:15,591 ] -         (linear1): Conv1d(992, 128, kernel_size=(1,), stride=(1,), bias=False)
[ INFO : 2024-09-16 23:57:15,591 ] -         (nonlinear2): Sequential(
[ INFO : 2024-09-16 23:57:15,591 ] -           (batchnorm): BatchNorm1d(128, eps=1e-05, momentum=0.1, affine=True, track_running_stats=True)
[ INFO : 2024-09-16 23:57:15,591 ] -           (relu): ReLU(inplace=True)
[ INFO : 2024-09-16 23:57:15,591 ] -         )
[ INFO : 2024-09-16 23:57:15,591 ] -         (cam_layer): CAMLayer(
[ INFO : 2024-09-16 23:57:15,591 ] -           (linear_local): Conv1d(128, 32, kernel_size=(3,), stride=(1,), padding=(2,), dilation=(2,), bias=False)
[ INFO : 2024-09-16 23:57:15,591 ] -           (linear1): Conv1d(128, 64, kernel_size=(1,), stride=(1,))
[ INFO : 2024-09-16 23:57:15,591 ] -           (relu): ReLU(inplace=True)
[ INFO : 2024-09-16 23:57:15,591 ] -           (linear2): Conv1d(64, 32, kernel_size=(1,), stride=(1,))
[ INFO : 2024-09-16 23:57:15,591 ] -           (sigmoid): Sigmoid()
[ INFO : 2024-09-16 23:57:15,591 ] -         )
[ INFO : 2024-09-16 23:57:15,591 ] -       )
[ INFO : 2024-09-16 23:57:15,591 ] -     )
[ INFO : 2024-09-16 23:57:15,591 ] -     (transit2): TransitLayer(
[ INFO : 2024-09-16 23:57:15,591 ] -       (nonlinear): Sequential(
[ INFO : 2024-09-16 23:57:15,591 ] -         (batchnorm): BatchNorm1d(1024, eps=1e-05, momentum=0.1, affine=True, track_running_stats=True)
[ INFO : 2024-09-16 23:57:15,591 ] -         (relu): ReLU(inplace=True)
[ INFO : 2024-09-16 23:57:15,591 ] -       )
[ INFO : 2024-09-16 23:57:15,591 ] -       (linear): Conv1d(1024, 512, kernel_size=(1,), stride=(1,), bias=False)
[ INFO : 2024-09-16 23:57:15,591 ] -     )
[ INFO : 2024-09-16 23:57:15,591 ] -     (block3): CAMDenseTDNNBlock(
[ INFO : 2024-09-16 23:57:15,592 ] -       (tdnnd1): CAMDenseTDNNLayer(
[ INFO : 2024-09-16 23:57:15,592 ] -         (nonlinear1): Sequential(
[ INFO : 2024-09-16 23:57:15,592 ] -           (batchnorm): BatchNorm1d(512, eps=1e-05, momentum=0.1, affine=True, track_running_stats=True)
[ INFO : 2024-09-16 23:57:15,592 ] -           (relu): ReLU(inplace=True)
[ INFO : 2024-09-16 23:57:15,592 ] -         )
[ INFO : 2024-09-16 23:57:15,592 ] -         (linear1): Conv1d(512, 128, kernel_size=(1,), stride=(1,), bias=False)
[ INFO : 2024-09-16 23:57:15,592 ] -         (nonlinear2): Sequential(
[ INFO : 2024-09-16 23:57:15,592 ] -           (batchnorm): BatchNorm1d(128, eps=1e-05, momentum=0.1, affine=True, track_running_stats=True)
[ INFO : 2024-09-16 23:57:15,592 ] -           (relu): ReLU(inplace=True)
[ INFO : 2024-09-16 23:57:15,592 ] -         )
[ INFO : 2024-09-16 23:57:15,592 ] -         (cam_layer): CAMLayer(
[ INFO : 2024-09-16 23:57:15,592 ] -           (linear_local): Conv1d(128, 32, kernel_size=(3,), stride=(1,), padding=(2,), dilation=(2,), bias=False)
[ INFO : 2024-09-16 23:57:15,592 ] -           (linear1): Conv1d(128, 64, kernel_size=(1,), stride=(1,))
[ INFO : 2024-09-16 23:57:15,592 ] -           (relu): ReLU(inplace=True)
[ INFO : 2024-09-16 23:57:15,592 ] -           (linear2): Conv1d(64, 32, kernel_size=(1,), stride=(1,))
[ INFO : 2024-09-16 23:57:15,592 ] -           (sigmoid): Sigmoid()
[ INFO : 2024-09-16 23:57:15,592 ] -         )
[ INFO : 2024-09-16 23:57:15,592 ] -       )
[ INFO : 2024-09-16 23:57:15,592 ] -       (tdnnd2): CAMDenseTDNNLayer(
[ INFO : 2024-09-16 23:57:15,592 ] -         (nonlinear1): Sequential(
[ INFO : 2024-09-16 23:57:15,592 ] -           (batchnorm): BatchNorm1d(544, eps=1e-05, momentum=0.1, affine=True, track_running_stats=True)
[ INFO : 2024-09-16 23:57:15,592 ] -           (relu): ReLU(inplace=True)
[ INFO : 2024-09-16 23:57:15,592 ] -         )
[ INFO : 2024-09-16 23:57:15,592 ] -         (linear1): Conv1d(544, 128, kernel_size=(1,), stride=(1,), bias=False)
[ INFO : 2024-09-16 23:57:15,592 ] -         (nonlinear2): Sequential(
[ INFO : 2024-09-16 23:57:15,592 ] -           (batchnorm): BatchNorm1d(128, eps=1e-05, momentum=0.1, affine=True, track_running_stats=True)
[ INFO : 2024-09-16 23:57:15,592 ] -           (relu): ReLU(inplace=True)
[ INFO : 2024-09-16 23:57:15,592 ] -         )
[ INFO : 2024-09-16 23:57:15,592 ] -         (cam_layer): CAMLayer(
[ INFO : 2024-09-16 23:57:15,592 ] -           (linear_local): Conv1d(128, 32, kernel_size=(3,), stride=(1,), padding=(2,), dilation=(2,), bias=False)
[ INFO : 2024-09-16 23:57:15,592 ] -           (linear1): Conv1d(128, 64, kernel_size=(1,), stride=(1,))
[ INFO : 2024-09-16 23:57:15,592 ] -           (relu): ReLU(inplace=True)
[ INFO : 2024-09-16 23:57:15,592 ] -           (linear2): Conv1d(64, 32, kernel_size=(1,), stride=(1,))
[ INFO : 2024-09-16 23:57:15,592 ] -           (sigmoid): Sigmoid()
[ INFO : 2024-09-16 23:57:15,592 ] -         )
[ INFO : 2024-09-16 23:57:15,592 ] -       )
[ INFO : 2024-09-16 23:57:15,592 ] -       (tdnnd3): CAMDenseTDNNLayer(
[ INFO : 2024-09-16 23:57:15,592 ] -         (nonlinear1): Sequential(
[ INFO : 2024-09-16 23:57:15,592 ] -           (batchnorm): BatchNorm1d(576, eps=1e-05, momentum=0.1, affine=True, track_running_stats=True)
[ INFO : 2024-09-16 23:57:15,592 ] -           (relu): ReLU(inplace=True)
[ INFO : 2024-09-16 23:57:15,592 ] -         )
[ INFO : 2024-09-16 23:57:15,592 ] -         (linear1): Conv1d(576, 128, kernel_size=(1,), stride=(1,), bias=False)
[ INFO : 2024-09-16 23:57:15,592 ] -         (nonlinear2): Sequential(
[ INFO : 2024-09-16 23:57:15,592 ] -           (batchnorm): BatchNorm1d(128, eps=1e-05, momentum=0.1, affine=True, track_running_stats=True)
[ INFO : 2024-09-16 23:57:15,592 ] -           (relu): ReLU(inplace=True)
[ INFO : 2024-09-16 23:57:15,592 ] -         )
[ INFO : 2024-09-16 23:57:15,592 ] -         (cam_layer): CAMLayer(
[ INFO : 2024-09-16 23:57:15,592 ] -           (linear_local): Conv1d(128, 32, kernel_size=(3,), stride=(1,), padding=(2,), dilation=(2,), bias=False)
[ INFO : 2024-09-16 23:57:15,592 ] -           (linear1): Conv1d(128, 64, kernel_size=(1,), stride=(1,))
[ INFO : 2024-09-16 23:57:15,592 ] -           (relu): ReLU(inplace=True)
[ INFO : 2024-09-16 23:57:15,592 ] -           (linear2): Conv1d(64, 32, kernel_size=(1,), stride=(1,))
[ INFO : 2024-09-16 23:57:15,592 ] -           (sigmoid): Sigmoid()
[ INFO : 2024-09-16 23:57:15,592 ] -         )
[ INFO : 2024-09-16 23:57:15,592 ] -       )
[ INFO : 2024-09-16 23:57:15,592 ] -       (tdnnd4): CAMDenseTDNNLayer(
[ INFO : 2024-09-16 23:57:15,592 ] -         (nonlinear1): Sequential(
[ INFO : 2024-09-16 23:57:15,592 ] -           (batchnorm): BatchNorm1d(608, eps=1e-05, momentum=0.1, affine=True, track_running_stats=True)
[ INFO : 2024-09-16 23:57:15,592 ] -           (relu): ReLU(inplace=True)
[ INFO : 2024-09-16 23:57:15,593 ] -         )
[ INFO : 2024-09-16 23:57:15,593 ] -         (linear1): Conv1d(608, 128, kernel_size=(1,), stride=(1,), bias=False)
[ INFO : 2024-09-16 23:57:15,593 ] -         (nonlinear2): Sequential(
[ INFO : 2024-09-16 23:57:15,593 ] -           (batchnorm): BatchNorm1d(128, eps=1e-05, momentum=0.1, affine=True, track_running_stats=True)
[ INFO : 2024-09-16 23:57:15,593 ] -           (relu): ReLU(inplace=True)
[ INFO : 2024-09-16 23:57:15,593 ] -         )
[ INFO : 2024-09-16 23:57:15,593 ] -         (cam_layer): CAMLayer(
[ INFO : 2024-09-16 23:57:15,593 ] -           (linear_local): Conv1d(128, 32, kernel_size=(3,), stride=(1,), padding=(2,), dilation=(2,), bias=False)
[ INFO : 2024-09-16 23:57:15,593 ] -           (linear1): Conv1d(128, 64, kernel_size=(1,), stride=(1,))
[ INFO : 2024-09-16 23:57:15,593 ] -           (relu): ReLU(inplace=True)
[ INFO : 2024-09-16 23:57:15,593 ] -           (linear2): Conv1d(64, 32, kernel_size=(1,), stride=(1,))
[ INFO : 2024-09-16 23:57:15,593 ] -           (sigmoid): Sigmoid()
[ INFO : 2024-09-16 23:57:15,593 ] -         )
[ INFO : 2024-09-16 23:57:15,593 ] -       )
[ INFO : 2024-09-16 23:57:15,593 ] -       (tdnnd5): CAMDenseTDNNLayer(
[ INFO : 2024-09-16 23:57:15,593 ] -         (nonlinear1): Sequential(
[ INFO : 2024-09-16 23:57:15,593 ] -           (batchnorm): BatchNorm1d(640, eps=1e-05, momentum=0.1, affine=True, track_running_stats=True)
[ INFO : 2024-09-16 23:57:15,593 ] -           (relu): ReLU(inplace=True)
[ INFO : 2024-09-16 23:57:15,593 ] -         )
[ INFO : 2024-09-16 23:57:15,593 ] -         (linear1): Conv1d(640, 128, kernel_size=(1,), stride=(1,), bias=False)
[ INFO : 2024-09-16 23:57:15,593 ] -         (nonlinear2): Sequential(
[ INFO : 2024-09-16 23:57:15,593 ] -           (batchnorm): BatchNorm1d(128, eps=1e-05, momentum=0.1, affine=True, track_running_stats=True)
[ INFO : 2024-09-16 23:57:15,593 ] -           (relu): ReLU(inplace=True)
[ INFO : 2024-09-16 23:57:15,593 ] -         )
[ INFO : 2024-09-16 23:57:15,593 ] -         (cam_layer): CAMLayer(
[ INFO : 2024-09-16 23:57:15,593 ] -           (linear_local): Conv1d(128, 32, kernel_size=(3,), stride=(1,), padding=(2,), dilation=(2,), bias=False)
[ INFO : 2024-09-16 23:57:15,593 ] -           (linear1): Conv1d(128, 64, kernel_size=(1,), stride=(1,))
[ INFO : 2024-09-16 23:57:15,593 ] -           (relu): ReLU(inplace=True)
[ INFO : 2024-09-16 23:57:15,593 ] -           (linear2): Conv1d(64, 32, kernel_size=(1,), stride=(1,))
[ INFO : 2024-09-16 23:57:15,593 ] -           (sigmoid): Sigmoid()
[ INFO : 2024-09-16 23:57:15,593 ] -         )
[ INFO : 2024-09-16 23:57:15,593 ] -       )
[ INFO : 2024-09-16 23:57:15,593 ] -       (tdnnd6): CAMDenseTDNNLayer(
[ INFO : 2024-09-16 23:57:15,593 ] -         (nonlinear1): Sequential(
[ INFO : 2024-09-16 23:57:15,593 ] -           (batchnorm): BatchNorm1d(672, eps=1e-05, momentum=0.1, affine=True, track_running_stats=True)
[ INFO : 2024-09-16 23:57:15,593 ] -           (relu): ReLU(inplace=True)
[ INFO : 2024-09-16 23:57:15,593 ] -         )
[ INFO : 2024-09-16 23:57:15,593 ] -         (linear1): Conv1d(672, 128, kernel_size=(1,), stride=(1,), bias=False)
[ INFO : 2024-09-16 23:57:15,593 ] -         (nonlinear2): Sequential(
[ INFO : 2024-09-16 23:57:15,593 ] -           (batchnorm): BatchNorm1d(128, eps=1e-05, momentum=0.1, affine=True, track_running_stats=True)
[ INFO : 2024-09-16 23:57:15,593 ] -           (relu): ReLU(inplace=True)
[ INFO : 2024-09-16 23:57:15,593 ] -         )
[ INFO : 2024-09-16 23:57:15,593 ] -         (cam_layer): CAMLayer(
[ INFO : 2024-09-16 23:57:15,593 ] -           (linear_local): Conv1d(128, 32, kernel_size=(3,), stride=(1,), padding=(2,), dilation=(2,), bias=False)
[ INFO : 2024-09-16 23:57:15,593 ] -           (linear1): Conv1d(128, 64, kernel_size=(1,), stride=(1,))
[ INFO : 2024-09-16 23:57:15,593 ] -           (relu): ReLU(inplace=True)
[ INFO : 2024-09-16 23:57:15,593 ] -           (linear2): Conv1d(64, 32, kernel_size=(1,), stride=(1,))
[ INFO : 2024-09-16 23:57:15,593 ] -           (sigmoid): Sigmoid()
[ INFO : 2024-09-16 23:57:15,593 ] -         )
[ INFO : 2024-09-16 23:57:15,593 ] -       )
[ INFO : 2024-09-16 23:57:15,593 ] -       (tdnnd7): CAMDenseTDNNLayer(
[ INFO : 2024-09-16 23:57:15,593 ] -         (nonlinear1): Sequential(
[ INFO : 2024-09-16 23:57:15,593 ] -           (batchnorm): BatchNorm1d(704, eps=1e-05, momentum=0.1, affine=True, track_running_stats=True)
[ INFO : 2024-09-16 23:57:15,593 ] -           (relu): ReLU(inplace=True)
[ INFO : 2024-09-16 23:57:15,593 ] -         )
[ INFO : 2024-09-16 23:57:15,593 ] -         (linear1): Conv1d(704, 128, kernel_size=(1,), stride=(1,), bias=False)
[ INFO : 2024-09-16 23:57:15,593 ] -         (nonlinear2): Sequential(
[ INFO : 2024-09-16 23:57:15,593 ] -           (batchnorm): BatchNorm1d(128, eps=1e-05, momentum=0.1, affine=True, track_running_stats=True)
[ INFO : 2024-09-16 23:57:15,593 ] -           (relu): ReLU(inplace=True)
[ INFO : 2024-09-16 23:57:15,593 ] -         )
[ INFO : 2024-09-16 23:57:15,593 ] -         (cam_layer): CAMLayer(
[ INFO : 2024-09-16 23:57:15,593 ] -           (linear_local): Conv1d(128, 32, kernel_size=(3,), stride=(1,), padding=(2,), dilation=(2,), bias=False)
[ INFO : 2024-09-16 23:57:15,594 ] -           (linear1): Conv1d(128, 64, kernel_size=(1,), stride=(1,))
[ INFO : 2024-09-16 23:57:15,594 ] -           (relu): ReLU(inplace=True)
[ INFO : 2024-09-16 23:57:15,594 ] -           (linear2): Conv1d(64, 32, kernel_size=(1,), stride=(1,))
[ INFO : 2024-09-16 23:57:15,594 ] -           (sigmoid): Sigmoid()
[ INFO : 2024-09-16 23:57:15,594 ] -         )
[ INFO : 2024-09-16 23:57:15,594 ] -       )
[ INFO : 2024-09-16 23:57:15,594 ] -       (tdnnd8): CAMDenseTDNNLayer(
[ INFO : 2024-09-16 23:57:15,594 ] -         (nonlinear1): Sequential(
[ INFO : 2024-09-16 23:57:15,594 ] -           (batchnorm): BatchNorm1d(736, eps=1e-05, momentum=0.1, affine=True, track_running_stats=True)
[ INFO : 2024-09-16 23:57:15,594 ] -           (relu): ReLU(inplace=True)
[ INFO : 2024-09-16 23:57:15,594 ] -         )
[ INFO : 2024-09-16 23:57:15,594 ] -         (linear1): Conv1d(736, 128, kernel_size=(1,), stride=(1,), bias=False)
[ INFO : 2024-09-16 23:57:15,594 ] -         (nonlinear2): Sequential(
[ INFO : 2024-09-16 23:57:15,594 ] -           (batchnorm): BatchNorm1d(128, eps=1e-05, momentum=0.1, affine=True, track_running_stats=True)
[ INFO : 2024-09-16 23:57:15,594 ] -           (relu): ReLU(inplace=True)
[ INFO : 2024-09-16 23:57:15,594 ] -         )
[ INFO : 2024-09-16 23:57:15,594 ] -         (cam_layer): CAMLayer(
[ INFO : 2024-09-16 23:57:15,594 ] -           (linear_local): Conv1d(128, 32, kernel_size=(3,), stride=(1,), padding=(2,), dilation=(2,), bias=False)
[ INFO : 2024-09-16 23:57:15,594 ] -           (linear1): Conv1d(128, 64, kernel_size=(1,), stride=(1,))
[ INFO : 2024-09-16 23:57:15,594 ] -           (relu): ReLU(inplace=True)
[ INFO : 2024-09-16 23:57:15,594 ] -           (linear2): Conv1d(64, 32, kernel_size=(1,), stride=(1,))
[ INFO : 2024-09-16 23:57:15,594 ] -           (sigmoid): Sigmoid()
[ INFO : 2024-09-16 23:57:15,594 ] -         )
[ INFO : 2024-09-16 23:57:15,594 ] -       )
[ INFO : 2024-09-16 23:57:15,594 ] -       (tdnnd9): CAMDenseTDNNLayer(
[ INFO : 2024-09-16 23:57:15,594 ] -         (nonlinear1): Sequential(
[ INFO : 2024-09-16 23:57:15,594 ] -           (batchnorm): BatchNorm1d(768, eps=1e-05, momentum=0.1, affine=True, track_running_stats=True)
[ INFO : 2024-09-16 23:57:15,594 ] -           (relu): ReLU(inplace=True)
[ INFO : 2024-09-16 23:57:15,594 ] -         )
[ INFO : 2024-09-16 23:57:15,594 ] -         (linear1): Conv1d(768, 128, kernel_size=(1,), stride=(1,), bias=False)
[ INFO : 2024-09-16 23:57:15,594 ] -         (nonlinear2): Sequential(
[ INFO : 2024-09-16 23:57:15,594 ] -           (batchnorm): BatchNorm1d(128, eps=1e-05, momentum=0.1, affine=True, track_running_stats=True)
[ INFO : 2024-09-16 23:57:15,594 ] -           (relu): ReLU(inplace=True)
[ INFO : 2024-09-16 23:57:15,594 ] -         )
[ INFO : 2024-09-16 23:57:15,594 ] -         (cam_layer): CAMLayer(
[ INFO : 2024-09-16 23:57:15,594 ] -           (linear_local): Conv1d(128, 32, kernel_size=(3,), stride=(1,), padding=(2,), dilation=(2,), bias=False)
[ INFO : 2024-09-16 23:57:15,594 ] -           (linear1): Conv1d(128, 64, kernel_size=(1,), stride=(1,))
[ INFO : 2024-09-16 23:57:15,594 ] -           (relu): ReLU(inplace=True)
[ INFO : 2024-09-16 23:57:15,594 ] -           (linear2): Conv1d(64, 32, kernel_size=(1,), stride=(1,))
[ INFO : 2024-09-16 23:57:15,594 ] -           (sigmoid): Sigmoid()
[ INFO : 2024-09-16 23:57:15,594 ] -         )
[ INFO : 2024-09-16 23:57:15,594 ] -       )
[ INFO : 2024-09-16 23:57:15,594 ] -       (tdnnd10): CAMDenseTDNNLayer(
[ INFO : 2024-09-16 23:57:15,594 ] -         (nonlinear1): Sequential(
[ INFO : 2024-09-16 23:57:15,594 ] -           (batchnorm): BatchNorm1d(800, eps=1e-05, momentum=0.1, affine=True, track_running_stats=True)
[ INFO : 2024-09-16 23:57:15,594 ] -           (relu): ReLU(inplace=True)
[ INFO : 2024-09-16 23:57:15,594 ] -         )
[ INFO : 2024-09-16 23:57:15,594 ] -         (linear1): Conv1d(800, 128, kernel_size=(1,), stride=(1,), bias=False)
[ INFO : 2024-09-16 23:57:15,594 ] -         (nonlinear2): Sequential(
[ INFO : 2024-09-16 23:57:15,594 ] -           (batchnorm): BatchNorm1d(128, eps=1e-05, momentum=0.1, affine=True, track_running_stats=True)
[ INFO : 2024-09-16 23:57:15,594 ] -           (relu): ReLU(inplace=True)
[ INFO : 2024-09-16 23:57:15,594 ] -         )
[ INFO : 2024-09-16 23:57:15,594 ] -         (cam_layer): CAMLayer(
[ INFO : 2024-09-16 23:57:15,594 ] -           (linear_local): Conv1d(128, 32, kernel_size=(3,), stride=(1,), padding=(2,), dilation=(2,), bias=False)
[ INFO : 2024-09-16 23:57:15,594 ] -           (linear1): Conv1d(128, 64, kernel_size=(1,), stride=(1,))
[ INFO : 2024-09-16 23:57:15,594 ] -           (relu): ReLU(inplace=True)
[ INFO : 2024-09-16 23:57:15,594 ] -           (linear2): Conv1d(64, 32, kernel_size=(1,), stride=(1,))
[ INFO : 2024-09-16 23:57:15,594 ] -           (sigmoid): Sigmoid()
[ INFO : 2024-09-16 23:57:15,594 ] -         )
[ INFO : 2024-09-16 23:57:15,594 ] -       )
[ INFO : 2024-09-16 23:57:15,594 ] -       (tdnnd11): CAMDenseTDNNLayer(
[ INFO : 2024-09-16 23:57:15,595 ] -         (nonlinear1): Sequential(
[ INFO : 2024-09-16 23:57:15,595 ] -           (batchnorm): BatchNorm1d(832, eps=1e-05, momentum=0.1, affine=True, track_running_stats=True)
[ INFO : 2024-09-16 23:57:15,595 ] -           (relu): ReLU(inplace=True)
[ INFO : 2024-09-16 23:57:15,595 ] -         )
[ INFO : 2024-09-16 23:57:15,595 ] -         (linear1): Conv1d(832, 128, kernel_size=(1,), stride=(1,), bias=False)
[ INFO : 2024-09-16 23:57:15,595 ] -         (nonlinear2): Sequential(
[ INFO : 2024-09-16 23:57:15,595 ] -           (batchnorm): BatchNorm1d(128, eps=1e-05, momentum=0.1, affine=True, track_running_stats=True)
[ INFO : 2024-09-16 23:57:15,595 ] -           (relu): ReLU(inplace=True)
[ INFO : 2024-09-16 23:57:15,595 ] -         )
[ INFO : 2024-09-16 23:57:15,595 ] -         (cam_layer): CAMLayer(
[ INFO : 2024-09-16 23:57:15,595 ] -           (linear_local): Conv1d(128, 32, kernel_size=(3,), stride=(1,), padding=(2,), dilation=(2,), bias=False)
[ INFO : 2024-09-16 23:57:15,595 ] -           (linear1): Conv1d(128, 64, kernel_size=(1,), stride=(1,))
[ INFO : 2024-09-16 23:57:15,595 ] -           (relu): ReLU(inplace=True)
[ INFO : 2024-09-16 23:57:15,595 ] -           (linear2): Conv1d(64, 32, kernel_size=(1,), stride=(1,))
[ INFO : 2024-09-16 23:57:15,595 ] -           (sigmoid): Sigmoid()
[ INFO : 2024-09-16 23:57:15,595 ] -         )
[ INFO : 2024-09-16 23:57:15,595 ] -       )
[ INFO : 2024-09-16 23:57:15,595 ] -       (tdnnd12): CAMDenseTDNNLayer(
[ INFO : 2024-09-16 23:57:15,595 ] -         (nonlinear1): Sequential(
[ INFO : 2024-09-16 23:57:15,595 ] -           (batchnorm): BatchNorm1d(864, eps=1e-05, momentum=0.1, affine=True, track_running_stats=True)
[ INFO : 2024-09-16 23:57:15,595 ] -           (relu): ReLU(inplace=True)
[ INFO : 2024-09-16 23:57:15,595 ] -         )
[ INFO : 2024-09-16 23:57:15,595 ] -         (linear1): Conv1d(864, 128, kernel_size=(1,), stride=(1,), bias=False)
[ INFO : 2024-09-16 23:57:15,595 ] -         (nonlinear2): Sequential(
[ INFO : 2024-09-16 23:57:15,595 ] -           (batchnorm): BatchNorm1d(128, eps=1e-05, momentum=0.1, affine=True, track_running_stats=True)
[ INFO : 2024-09-16 23:57:15,595 ] -           (relu): ReLU(inplace=True)
[ INFO : 2024-09-16 23:57:15,595 ] -         )
[ INFO : 2024-09-16 23:57:15,595 ] -         (cam_layer): CAMLayer(
[ INFO : 2024-09-16 23:57:15,595 ] -           (linear_local): Conv1d(128, 32, kernel_size=(3,), stride=(1,), padding=(2,), dilation=(2,), bias=False)
[ INFO : 2024-09-16 23:57:15,595 ] -           (linear1): Conv1d(128, 64, kernel_size=(1,), stride=(1,))
[ INFO : 2024-09-16 23:57:15,595 ] -           (relu): ReLU(inplace=True)
[ INFO : 2024-09-16 23:57:15,595 ] -           (linear2): Conv1d(64, 32, kernel_size=(1,), stride=(1,))
[ INFO : 2024-09-16 23:57:15,595 ] -           (sigmoid): Sigmoid()
[ INFO : 2024-09-16 23:57:15,595 ] -         )
[ INFO : 2024-09-16 23:57:15,595 ] -       )
[ INFO : 2024-09-16 23:57:15,595 ] -       (tdnnd13): CAMDenseTDNNLayer(
[ INFO : 2024-09-16 23:57:15,595 ] -         (nonlinear1): Sequential(
[ INFO : 2024-09-16 23:57:15,595 ] -           (batchnorm): BatchNorm1d(896, eps=1e-05, momentum=0.1, affine=True, track_running_stats=True)
[ INFO : 2024-09-16 23:57:15,595 ] -           (relu): ReLU(inplace=True)
[ INFO : 2024-09-16 23:57:15,595 ] -         )
[ INFO : 2024-09-16 23:57:15,595 ] -         (linear1): Conv1d(896, 128, kernel_size=(1,), stride=(1,), bias=False)
[ INFO : 2024-09-16 23:57:15,595 ] -         (nonlinear2): Sequential(
[ INFO : 2024-09-16 23:57:15,595 ] -           (batchnorm): BatchNorm1d(128, eps=1e-05, momentum=0.1, affine=True, track_running_stats=True)
[ INFO : 2024-09-16 23:57:15,595 ] -           (relu): ReLU(inplace=True)
[ INFO : 2024-09-16 23:57:15,595 ] -         )
[ INFO : 2024-09-16 23:57:15,595 ] -         (cam_layer): CAMLayer(
[ INFO : 2024-09-16 23:57:15,595 ] -           (linear_local): Conv1d(128, 32, kernel_size=(3,), stride=(1,), padding=(2,), dilation=(2,), bias=False)
[ INFO : 2024-09-16 23:57:15,595 ] -           (linear1): Conv1d(128, 64, kernel_size=(1,), stride=(1,))
[ INFO : 2024-09-16 23:57:15,595 ] -           (relu): ReLU(inplace=True)
[ INFO : 2024-09-16 23:57:15,595 ] -           (linear2): Conv1d(64, 32, kernel_size=(1,), stride=(1,))
[ INFO : 2024-09-16 23:57:15,595 ] -           (sigmoid): Sigmoid()
[ INFO : 2024-09-16 23:57:15,595 ] -         )
[ INFO : 2024-09-16 23:57:15,595 ] -       )
[ INFO : 2024-09-16 23:57:15,595 ] -       (tdnnd14): CAMDenseTDNNLayer(
[ INFO : 2024-09-16 23:57:15,595 ] -         (nonlinear1): Sequential(
[ INFO : 2024-09-16 23:57:15,595 ] -           (batchnorm): BatchNorm1d(928, eps=1e-05, momentum=0.1, affine=True, track_running_stats=True)
[ INFO : 2024-09-16 23:57:15,595 ] -           (relu): ReLU(inplace=True)
[ INFO : 2024-09-16 23:57:15,595 ] -         )
[ INFO : 2024-09-16 23:57:15,595 ] -         (linear1): Conv1d(928, 128, kernel_size=(1,), stride=(1,), bias=False)
[ INFO : 2024-09-16 23:57:15,595 ] -         (nonlinear2): Sequential(
[ INFO : 2024-09-16 23:57:15,596 ] -           (batchnorm): BatchNorm1d(128, eps=1e-05, momentum=0.1, affine=True, track_running_stats=True)
[ INFO : 2024-09-16 23:57:15,596 ] -           (relu): ReLU(inplace=True)
[ INFO : 2024-09-16 23:57:15,596 ] -         )
[ INFO : 2024-09-16 23:57:15,596 ] -         (cam_layer): CAMLayer(
[ INFO : 2024-09-16 23:57:15,596 ] -           (linear_local): Conv1d(128, 32, kernel_size=(3,), stride=(1,), padding=(2,), dilation=(2,), bias=False)
[ INFO : 2024-09-16 23:57:15,596 ] -           (linear1): Conv1d(128, 64, kernel_size=(1,), stride=(1,))
[ INFO : 2024-09-16 23:57:15,596 ] -           (relu): ReLU(inplace=True)
[ INFO : 2024-09-16 23:57:15,596 ] -           (linear2): Conv1d(64, 32, kernel_size=(1,), stride=(1,))
[ INFO : 2024-09-16 23:57:15,596 ] -           (sigmoid): Sigmoid()
[ INFO : 2024-09-16 23:57:15,596 ] -         )
[ INFO : 2024-09-16 23:57:15,596 ] -       )
[ INFO : 2024-09-16 23:57:15,596 ] -       (tdnnd15): CAMDenseTDNNLayer(
[ INFO : 2024-09-16 23:57:15,596 ] -         (nonlinear1): Sequential(
[ INFO : 2024-09-16 23:57:15,596 ] -           (batchnorm): BatchNorm1d(960, eps=1e-05, momentum=0.1, affine=True, track_running_stats=True)
[ INFO : 2024-09-16 23:57:15,596 ] -           (relu): ReLU(inplace=True)
[ INFO : 2024-09-16 23:57:15,596 ] -         )
[ INFO : 2024-09-16 23:57:15,596 ] -         (linear1): Conv1d(960, 128, kernel_size=(1,), stride=(1,), bias=False)
[ INFO : 2024-09-16 23:57:15,596 ] -         (nonlinear2): Sequential(
[ INFO : 2024-09-16 23:57:15,596 ] -           (batchnorm): BatchNorm1d(128, eps=1e-05, momentum=0.1, affine=True, track_running_stats=True)
[ INFO : 2024-09-16 23:57:15,596 ] -           (relu): ReLU(inplace=True)
[ INFO : 2024-09-16 23:57:15,596 ] -         )
[ INFO : 2024-09-16 23:57:15,596 ] -         (cam_layer): CAMLayer(
[ INFO : 2024-09-16 23:57:15,596 ] -           (linear_local): Conv1d(128, 32, kernel_size=(3,), stride=(1,), padding=(2,), dilation=(2,), bias=False)
[ INFO : 2024-09-16 23:57:15,596 ] -           (linear1): Conv1d(128, 64, kernel_size=(1,), stride=(1,))
[ INFO : 2024-09-16 23:57:15,596 ] -           (relu): ReLU(inplace=True)
[ INFO : 2024-09-16 23:57:15,596 ] -           (linear2): Conv1d(64, 32, kernel_size=(1,), stride=(1,))
[ INFO : 2024-09-16 23:57:15,596 ] -           (sigmoid): Sigmoid()
[ INFO : 2024-09-16 23:57:15,596 ] -         )
[ INFO : 2024-09-16 23:57:15,596 ] -       )
[ INFO : 2024-09-16 23:57:15,596 ] -       (tdnnd16): CAMDenseTDNNLayer(
[ INFO : 2024-09-16 23:57:15,596 ] -         (nonlinear1): Sequential(
[ INFO : 2024-09-16 23:57:15,596 ] -           (batchnorm): BatchNorm1d(992, eps=1e-05, momentum=0.1, affine=True, track_running_stats=True)
[ INFO : 2024-09-16 23:57:15,596 ] -           (relu): ReLU(inplace=True)
[ INFO : 2024-09-16 23:57:15,596 ] -         )
[ INFO : 2024-09-16 23:57:15,596 ] -         (linear1): Conv1d(992, 128, kernel_size=(1,), stride=(1,), bias=False)
[ INFO : 2024-09-16 23:57:15,596 ] -         (nonlinear2): Sequential(
[ INFO : 2024-09-16 23:57:15,596 ] -           (batchnorm): BatchNorm1d(128, eps=1e-05, momentum=0.1, affine=True, track_running_stats=True)
[ INFO : 2024-09-16 23:57:15,596 ] -           (relu): ReLU(inplace=True)
[ INFO : 2024-09-16 23:57:15,596 ] -         )
[ INFO : 2024-09-16 23:57:15,596 ] -         (cam_layer): CAMLayer(
[ INFO : 2024-09-16 23:57:15,596 ] -           (linear_local): Conv1d(128, 32, kernel_size=(3,), stride=(1,), padding=(2,), dilation=(2,), bias=False)
[ INFO : 2024-09-16 23:57:15,596 ] -           (linear1): Conv1d(128, 64, kernel_size=(1,), stride=(1,))
[ INFO : 2024-09-16 23:57:15,596 ] -           (relu): ReLU(inplace=True)
[ INFO : 2024-09-16 23:57:15,596 ] -           (linear2): Conv1d(64, 32, kernel_size=(1,), stride=(1,))
[ INFO : 2024-09-16 23:57:15,596 ] -           (sigmoid): Sigmoid()
[ INFO : 2024-09-16 23:57:15,596 ] -         )
[ INFO : 2024-09-16 23:57:15,596 ] -       )
[ INFO : 2024-09-16 23:57:15,596 ] -     )
[ INFO : 2024-09-16 23:57:15,596 ] -     (transit3): TransitLayer(
[ INFO : 2024-09-16 23:57:15,596 ] -       (nonlinear): Sequential(
[ INFO : 2024-09-16 23:57:15,596 ] -         (batchnorm): BatchNorm1d(1024, eps=1e-05, momentum=0.1, affine=True, track_running_stats=True)
[ INFO : 2024-09-16 23:57:15,596 ] -         (relu): ReLU(inplace=True)
[ INFO : 2024-09-16 23:57:15,596 ] -       )
[ INFO : 2024-09-16 23:57:15,596 ] -       (linear): Conv1d(1024, 512, kernel_size=(1,), stride=(1,), bias=False)
[ INFO : 2024-09-16 23:57:15,596 ] -     )
[ INFO : 2024-09-16 23:57:15,596 ] -     (out_nonlinear): Sequential(
[ INFO : 2024-09-16 23:57:15,596 ] -       (batchnorm): BatchNorm1d(512, eps=1e-05, momentum=0.1, affine=True, track_running_stats=True)
[ INFO : 2024-09-16 23:57:15,596 ] -       (relu): ReLU(inplace=True)
[ INFO : 2024-09-16 23:57:15,596 ] -     )
[ INFO : 2024-09-16 23:57:15,596 ] -     (stats): TSTP()
[ INFO : 2024-09-16 23:57:15,596 ] -     (dense): DenseLayer(
[ INFO : 2024-09-16 23:57:15,597 ] -       (linear): Conv1d(1024, 512, kernel_size=(1,), stride=(1,), bias=False)
[ INFO : 2024-09-16 23:57:15,597 ] -       (nonlinear): Sequential(
[ INFO : 2024-09-16 23:57:15,597 ] -         (batchnorm): BatchNorm1d(512, eps=1e-05, momentum=0.1, affine=False, track_running_stats=True)
[ INFO : 2024-09-16 23:57:15,597 ] -       )
[ INFO : 2024-09-16 23:57:15,597 ] -     )
[ INFO : 2024-09-16 23:57:15,597 ] -   )
[ INFO : 2024-09-16 23:57:15,597 ] -   (pool): TSTP()
[ INFO : 2024-09-16 23:57:15,597 ] -   (projection): ArcMarginProduct(
[ INFO : 2024-09-16 23:57:15,597 ] -     in_features=512, out_features=1728, scale=32.0,
…
